src/lerobot/robots/unitree_g1/assets/g1/mimic/gangnam_style/policy.onnx (onnx, 990556 bytes, 8 tensors)

actor.0.weight f4 [512, 154]
0.11431369 0.13457707 0.25771263 -0.38121533 0.07082762 0.05387613 -0.34511745 -0.013860656
-0.17230791 -0.10792683 0.019300416 0.089714505 0.03685692 -0.053697973 -0.2920977 0.021116288
-0.033573292 -0.19837768 0.103265755 0.15217285 -0.12552589 -0.015564708 0.0653084 0.041124143
0.027760876 -0.07008638 0.07123723 -0.22164801 0.13454242 -0.14991066 0.08537993 -0.045053225
0.0099008875 0.035293996 -0.0844759 -0.05355991 0.036770627 0.052559357 0.13445713 0.09785754
0.057269882 0.03349833 0.091996 -0.04177895 -8.684117e-05 -0.06856172 -0.054111727 -0.018019041
0.10192106 -0.046995055 0.03750679 -0.03332074 0.10503805 -0.08864269 0.2377802 0.24160007
-0.10925828 -0.2607178 -0.1087379 -0.119871326 0.20465381 0.019583302 -0.43089947 -0.440864
0.18535809 -0.1974394 0.007038178 -0.14029963 0.15447931 0.40894872 0.015406093 -0.2067081
0.42504776 -0.15424255 0.05659304 0.012643553 -0.34821615 -0.016962837 0.039823953 -0.0651312
-0.0981241 0.01858227 -0.0137375975 0.08217608 -0.15811789 -0.055545155 -0.017828425 0.016656814
-0.08400842 0.10540107 0.062854305 0.0034417948 -0.07935379 0.012066056 -0.053140488 -0.071557365
-0.015792279 -0.13231094 -0.064429775 0.17985703 -0.0053521777 0.018620078 -0.018708196 -0.056556735
-0.0407092 -0.010346649 0.05190111 -0.04934582 -0.0154879615 0.030383388 0.008074642 -0.10878247
0.02114004 0.009282438 0.0016349555 -0.029900666 -0.012687809 0.0021799984 -0.020702858 -0.0072673
0.0015653799 -0.024417609 0.043731384 0.029669005 -0.0002285392 -0.101364546 -0.027217628 0.018168971
-0.07747984 0.10952184 0.091623396 -0.08710888 -0.08426286 -0.10271846 -0.21805999 -0.0778962
0.061803695 -0.09085785 0.01497716 -0.13269456 0.06009238 0.1207449 0.096858144 0.13610561
-0.027767582 0.012700115 -0.07687514 0.11263578 -0.0012541906 -0.013384 0.055763043 -0.013995153
0.009333335 0.024715768 -0.060778532 -0.04917719 0.11221589 -0.030320533 0.026211437 0.023150822
-0.22078805 0.050503116 0.14450261 0.022884186 0.018307073 -0.05180797 0.12539229 0.031658333
-0.031911243 -0.056981556 -0.062272247 0.18516044 -0.043609943 0.18192905 -0.050499335 -0.057380475
-0.06996282 -0.07572436 -0.05385465 -0.113976575 -0.11586291 -0.23450336 0.10198165 0.09550212
-0.0014695552 -0.084357254 0.01337347 -0.060503073 0.025367027 -0.035336208 -0.10952291 0.14840744
0.021491349 0.003974415 -0.030084245 0.01964581 -0.018756254 -0.026538357 -0.0062106475 0.058717445
-0.0103288945 0.073779486 -0.0490955 -0.018481672 0.07539756 -0.05369222 -0.050917596 -0.08525316
0.049766928 -0.0061698165 0.04398534 0.07960234 0.044129245 0.23761597 -0.28287223 0.04039807
0.011008383 0.040452052 0.023954563 0.1444874 0.07147223 0.26522842 0.34065297 -0.2436402
0.17051943 -0.083984196 0.6908822 -0.09137126 0.2976832 -0.8049454 0.12823896 0.17110874
0.14979617 0.02699347 -0.008669091 -0.09618818 -0.010293103 0.0037458346 -0.52872074 0.2187726
0.11659175 -0.0027788242 -0.08165118 -0.05758193 0.062474728 0.06909574 -0.006937547 0.017109944
0.087185286 0.034434162 0.05793187 0.10218256 -0.03735214 0.030588148 -0.062123615 0.0830901
00000000: 4c1d ea3d 92ce 093e e9f2 833e a82e c3be
00000010: 120e 913d 38ad 5c3d 3cb3 b0be ce17 63bc
00000020: 7c71 30be be08 ddbd e81b 9e3c 3dbc b73d
00000030: 48f7 163d 68f2 5bbd d48d 95be 11fc ac3c
00000040: 2684 09bd 8523 4bbe ff7c d33d 33d3 1b3e
00000050: dc89 00be 1e03 7fbc 69c0 853d ca71 283d
00000060: c76a e33c 7389 8fbd d3e4 913d b2f7 62be
00000070: 7dc5 093e 2e82 19be acdb ae3d bb89 38bd
00000080: 5537 223c 7090 103d b301 adbd a361 5bbd
00000090: cc9c 163d 7b48 573d 21af 093e 8969 c83d
000000a0: d393 6a3d 8b35 093d 6668 bc3d 6720 2bbd
000000b0: 801e b6b8 166a 8cbd 42a4 5dbd ab9c 93bc
000000c0: fdbb d03d e37d 40bd b8a0 193d 547b 08bd
000000d0: 301e d73d 4c8a b5bd a77c 733e 0266 773e
000000e0: cec2 dfbd ce7c 85be fab1 debd 197f f5bd
000000f0: c590 513e 296d a03c db9e dcbe edb8 e1be
00000100: 83ce 3d3e 8e2d 4abe 84a0 e63b b5aa 0fbe
00000110: d32f 1e3e ba61 d13e d669 7c3c 4aab 53be
00000120: dc9f d93e c2f1 1dbe 1ace 673d e826 4f3c
00000130: 6349 b2be a6f5 8abc 711e 233d 8263 85bd
00000140: 4af5 c8bd d839 983c a913 61bc ef4b a83d
00000150: a8e9 21be 5183 63bd eb0c 92bc df73 883c
00000160: 9b0c acbd 84dc d73d c2b9 803d bc8f 613b
00000170: 3d84 a2bd b5b0 453c d7a9 59bd ab8c 92bd
00000180: cf5e 81bc 857c 07be c2f3 83bd 712c 383e
00000190: 5261 afbb 2289 983c ee41 99bc 09a8 67bd
000001a0: b1be 26bd fe84 29bc 4296 543d d81e 4abd
000001b0: 38c1 7dbc 95e6 f83c 814b 043c 58c9 debd
000001c0: e12d ad3c 5e15 183c 014c d63a 3ef2 f4bc
000001d0: 87e0 4fbc 4ede 0e3b 0a99 a9bc 8822 eebb
000001e0: 6f2d cd3a 7007 c8bc ae1f 333d 6a0c f33c
000001f0: 06a4 6fb9 3798 cfbd 81f7 debc 18d7 943c
00000200: c0ad 9ebd fd4c e03d 0ca5 bb3d 2466 b2bd
00000210: 0292 acbd 0e5e d2bd 1e4b 5fbe 0b88 9fbd
00000220: df25 7d3d ae13 babd c362 753c 15e1 07be
00000230: 6d23 763d 1a49 f73d 905d c63d 455f 0b3e
00000240: d778 e3bc 2514 503c b770 9dbd 96ad e63d
00000250: a763 a4ba 9148 5bbc ca67 643d ed4b 65bc
00000260: d8ea 183c b978 ca3c e9f2 78bd 056e 49bd
00000270: 72d1 e53d c462 f8bc 5eb9 d63c cba6 bd3c
00000280: 4316 62be 5bdc 4e3d 7ef8 133e 9e77 bb3c
00000290: b7f8 953c 9834 54bd d666 003e 2bac 013d
000002a0: 5db5 02bd 7e65 69bd 2f11 7fbd b39a 3d3e
000002b0: 57a0 32bd 9c4b 3a3e 64d8 4ebd ca07 6bbd
000002c0: ab48 8fbd 6015 9bbd b296 5cbd 8d6c e9bd
000002d0: 8949 edbd a621 70be c1db d03d 9e96 c33d
000002e0: 179e c0ba 7fc3 acbd 661c 5b3c 12d2 77bd
000002f0: 83ce cf3c b3bc 10bd 8c4d e0bd 1ff8 173e
00000300: a00e b03c cf3b 823b 3c73 f6bc 40f0 a03c
00000310: b7a6 99bc f866 d9bc b082 cbbb b481 703d
00000320: 863a 29bc b319 973d 5d18 49bd e066 97bc
00000330: 096a 9a3d 60ec 5bbd f88e 50bd 3599 aebd
00000340: 68d8 4b3d 2c2c cabb f929 343d 8d06 a33d
00000350: dec0 343d 9a51 733e a1d4 90be 7278 253d
00000360: 815c 343c 0db1 253d 5c3c c43c 81f4 133e
00000370: 0860 923d 05cc 873e 116a ae3e d17c 79be
00000380: a59c 2e3e e8ff abbd a8dd 303f db20 bbbd
00000390: ef69 983e e710 4ebf 1351 033e 2137 2f3e
000003a0: 2b64 193e 6921 dd3c ce08 0ebc 4ffe c4bd
000003b0: 67a4 28bc ad7c 753b 3e5a 07bf ed05 603e
000003c0: a8c7 ee3d ef1c 36bb bc38 a7bd 08db 6bbd
000003d0: 80e5 7f3d 1182 8d3d 5d54 e3bb 272a 8c3c
000003e0: 338e b23d d60a 0d3d f849 6d3d 1745 d13d
000003f0: 8ffe 18bd ff93 fa3c 5575 7ebd 242b aa3d

actor.0.bias f4 [512]
-0.12776868 0.027594399 -0.036878597 0.04948766 -0.10150392 -0.061697792 0.0060872794 -0.09289443
0.088863835 -0.03962736 0.07916594 0.09237534 0.0736965 -0.081641 -0.08068538 0.11804415
-0.08816659 -0.050094076 -0.08017772 0.04065302 0.03189118 0.07079367 -0.12337393 0.028632369
0.10216793 -0.067989 -0.089043304 0.0039107776 -0.018962799 0.030907638 -0.049527604 -0.101012655
-0.07893753 -0.0039778505 -0.05591986 -0.06657395 -0.074990466 0.072942056 -0.027239744 0.009606612
-0.110961795 -0.039355457 0.0035221654 0.037071194 -0.026979756 -0.07765048 -0.05782591 0.061923593
-0.008091603 0.095049016 -0.0777001 -0.024536775 -0.018123874 -0.09902693 -0.07153584 0.04198256
0.0110658705 0.039021727 -0.076231055 -0.09534209 -0.07345072 -0.062367275 0.04371961 -0.0039383634
-0.1377087 0.0068021733 -0.038159236 0.044728857 -0.06193664 0.10593241 -0.104665786 -0.025501452
-0.05467348 -0.03706037 -0.16476586 -0.09994125 -0.04123747 -0.029263709 0.13508835 -0.058887947
0.056286182 -0.09972941 0.006299422 -0.012095137 0.03586897 0.015870415 -0.05092715 -0.01412468
-0.10096524 -0.0049921195 0.005938718 0.053896394 -0.13426855 -0.117985144 0.0014243991 -0.09750415
0.049577687 0.076828614 0.007979832 -0.12073521 -0.024838744 0.042537436 0.075431615 -0.035328586
-0.090815835 0.0026520276 -0.085369274 0.112891674 0.0534655 0.0047414512 0.049034927 -0.06840625
0.03412099 -0.041333735 0.0421765 -0.03618603 0.039830845 -0.07994094 0.11338726 -0.02448629
-0.042275567 0.056288533 0.08197232 0.05197872 0.09317619 -0.0861988 0.1075919 -0.12630744
0.019038511 -0.062416356 -0.005650396 -0.121292 -0.031604648 -0.032506686 -0.0073206527 -0.025841154
-0.028869439 -0.12073413 0.04952893 -0.08874959 0.016640613 -0.005370388 0.037846413 0.041598424
-0.052284386 -0.0045181364 0.06963793 0.07289151 -0.052131448 -0.06644128 -0.08083564 -0.14068194
0.011266109 0.07850969 0.004155736 -0.044133957 0.013102308 0.02002377 -0.07698822 -0.045351133
-0.06595992 -0.086035244 -0.1344195 0.070101514 0.018505054 -0.002104826 -0.011432378 0.10010817
-0.024551071 -0.10678741 -0.00083870033 -0.08338824 -0.11696961 -0.023326417 -0.057433143 -0.013740064
-0.12943493 -0.08465725 -0.0539421 -0.050749946 0.043334495 -0.012479559 0.062066402 0.015359596
-0.12612906 -0.043973275 -0.017191064 0.020423738 0.04006903 -0.076086774 -0.039238963 -0.102139644
-0.016028346 0.032331895 0.010202672 -0.054652188 0.04625055 -0.10183238 0.07839671 0.0063337917
-0.07817383 -0.08745894 -0.037938863 -0.041274533 -0.1206265 -0.098635174 -0.04096989 -0.025593312
0.07930366 -0.023650957 0.038252786 -0.027800424 -0.039382394 -0.0033129267 -0.035337098 0.005119492
0.002209304 -0.09276717 0.009482204 0.022650763 -0.081408046 -0.057873096 -0.116561726 0.10485099
0.013524589 0.05546216 -0.01772882 -0.14275235 0.061317813 0.009994538 0.06473178 0.05015928
0.05254707 -0.10272853 -0.100684546 0.023006314 -0.0012990582 0.08251951 0.07015842 0.005881556
0.00035953446 -0.046492614 -0.08583824 0.053268306 -0.06536307 -0.0006676655 -0.005807221 0.028362155
0.06539687 -0.059698217 0.056110784 -0.07363463 -0.043355934 -0.022564374 -0.03273223 -0.08933054
00000000: cbd5 02be a60d e23c 030e 17bd 93b3 4a3d
00000010: 4ae1 cfbd d3b6 7cbd cd77 c73b 6f3f bebd
00000020: 3efe b53d 4c50 22bd c121 a23d 482f bd3d
00000030: 31ee 963d 6633 a7bd 603e a5bd 22c1 f13d
00000040: af90 b4bd 722f 4dbd 3734 a4bd c883 263d
00000050: 53a0 023d 46fc 903d 79ab fcbd 6e8e ea3c
00000060: 6b3d d13d d13d 8bbd 565c b6bd fb25 803b
00000070: df57 9bbc 0432 fd3c 75dd 4abd b9df cebd
00000080: 00aa a1bd a158 82bb 390c 65bd ec57 88bd
00000090: 9a94 99bd a562 953d e225 dfbc 0d65 1d3c
000000a0: f03f e3bd 3033 21bd 21d4 663b f7d7 173d
000000b0: a604 ddbc 3707 9fbd ddda 6cbd 98a3 7d3d
000000c0: a592 04bc 0fa9 c23d 3b21 9fbd 5901 c9bc
000000d0: 8578 94bc a2ce cabd 6281 92bd e8f5 2b3d
000000e0: a04d 353c 3fd5 1f3d 071f 9cbd b742 c3bd
000000f0: 556d 96bd d474 7fbd 5513 333d 630d 81bb
00000100: 8203 0dbe c4e4 de3b dc4c 1cbd 9b35 373d
00000110: 46b1 7dbd 17f3 d83d 045b d6bd 6ce8 d0bc
00000120: 4df1 5fbd 9dcc 17bd 62b8 28be 00ae ccbd
00000130: 9fe8 28bd 72ba efbc 9a54 0a3e 7d34 71bd
00000140: 578c 663d ef3e ccbd 626b ce3b ae2a 46bc
00000150: 57eb 123d ac02 823c fd98 50bd 346b 67bc
00000160: ddc6 cebd ef94 a3bb 9499 c23b 77c2 5c3d
00000170: b27d 09be 32a2 f1bd e7b2 ba3a 41b0 c7bd
00000180: f911 4b3d 5258 9d3d d7bd 023c 0644 f7bd
00000190: 9f7a cbbc bc3b 2e3d e47b 9a3d b5b4 10bd
000001a0: a7fd b9bd a4cd 2d3b 16d6 aebd c033 e73d
000001b0: a4fe 5a3d 2d5e 9b3b d9d8 483d 9318 8cbd
000001c0: 74c2 0b3d 904d 29bd 44c1 2c3d cd37 14bd
000001d0: ab25 233d 13b8 a3bd 9437 e83d 7997 c8bc
000001e0: 2529 2dbd ce8e 663d 1be1 a73d a3e7 543d
000001f0: 29d3 be3d ff88 b0bd 2459 dc3d bd56 01be
00000200: a7f6 9b3c 4ba8 7fbd f526 b9bb f167 f8bd
00000210: e073 01bd bb25 05bd 16e2 efbb d4b0 d3bc
00000220: 9a7f ecbc 7543 f7bd d9de 4a3d 58c2 b5bd
00000230: e551 883c 14fa afbb d704 1b3d 1c63 2a3d
00000240: 2728 56bd e00c 94bb 559e 8e3d 2548 953d
00000250: c987 55bd 5e12 88bd 288d a5bd ed0e 10be
00000260: 7c95 383c b0c9 a03d d72c 883b cfc5 34bd
00000270: 10ab 563c e408 a43c 00ac 9dbd 1cc2 39bd
00000280: ff15 87bd 3f33 b0bd 44a5 09be 6291 8f3d
00000290: e997 973c 1ff1 09bb de4e 3bbc 8305 cd3d
000002a0: 541f c9bc 5cb3 dabd 3adc 5bba 74c7 aabd
000002b0: c38d efbd 0b17 bfbc 043f 6bbd 011e 61bc
000002c0: 978a 04be c860 adbd 64f2 5cbd 2ddf 4fbd
000002d0: 837f 313d 1077 4cbc 5739 7e3d d1a6 7b3c
000002e0: fa27 01be 521d 34bd 46d4 8cbc af4f a73c
000002f0: 6c1f 243d 62d3 9bbd 09b9 20bd 972e d1bd
00000300: e14d 83bc 736e 043d 1c29 273c f9da 5fbd
00000310: 3771 3d3d 7f8d d0bd 748e a03d b28b cf3b
00000320: 9a19 a0bd ac1d b3bd c865 1bbd 7c0f 29bd
00000330: 070b f7bd 3d01 cabd 0bd0 27bd 11a9 d1bc
00000340: f569 a23d a7bf c1bc f4ae 1c3d b7bd e3bc
00000350: 6f4f 21bd b01d 59bb a2bd 10bd 69c1 a73b
00000360: f8c9 103b b7fc bdbd 3f5b 1b3c 188e b93c
00000370: 43b9 a6bd 570c 6dbd eab7 eebd 1ebc d63d
00000380: 3d96 5d3c 4a2c 633d 083c 91bc ac2d 12be
00000390: 6328 7b3d 21c0 233c 1892 843d d173 4d3d
000003a0: 993b 573d 5663 d2bd b333 cebd bd77 bc3c
000003b0: 2945 aaba fdff a83d 38af 8f3d 11ba c03b
000003c0: e67f bc39 0a6f 3ebd f6cb afbd de2f 5a3d
000003d0: 13dd 85bd 4606 2fba 804a bebb c057 e83c
000003e0: cbee 853d 1e86 74bd 6cd4 653d c1cd 96bd
000003f0: fe95 31bd ecd8 b8bc 3b12 06bd eef2 b6bd

actor.2.weight f4 [256, 512]
0.08285148 0.03840097 0.006889687 -0.098173104 -0.06936994 -0.10855072 0.00032274058 0.12612936
0.033081457 -0.02224213 0.060501624 0.028524952 0.025285032 -0.05726074 -0.03565814 0.07122562
0.0021198767 -0.014794651 0.09497398 -0.093934074 0.09522701 0.010244086 -0.0013357577 -0.0493281
0.021468854 0.040930882 0.117371164 0.027547054 -0.034857456 0.02367805 0.03348653 0.033142906
-0.0374276 -0.012680453 -0.015560291 -0.025936494 0.028253376 -0.063861735 0.07325211 0.00030730022
0.083494306 0.0231675 -0.02241695 -0.060531717 -0.053394582 0.01377659 -0.020399129 -0.029167604
-0.083518244 -0.06102326 -0.0716426 -0.048355885 -0.0552391 0.0058918023 0.0275563 0.05451351
-0.0032778326 -0.09470597 -0.029525595 0.040474072 0.026260015 -0.07849582 0.00336559 0.039140895
0.005576773 -0.0075835637 -0.007894632 0.013808743 -0.037217163 0.0031577435 -0.028515559 -0.003138463
0.066248275 -0.017900618 0.0036233524 0.026916021 0.023600843 -0.0035273675 -0.0011753968 -0.00031476043
0.02628903 0.053925425 -0.042920377 0.041319232 0.006856762 0.0075774137 0.011057519 -0.0016333848
0.017556215 0.019699741 -0.04607796 0.01241923 0.008437193 0.026226925 -0.0012540357 0.0020270497
0.02558005 0.0040625045 -0.0090258485 0.03807271 -0.01829682 -0.034434393 0.08859735 0.033140402
0.14168061 -0.026854858 -0.05620151 -0.053665858 -0.047872372 0.0007123128 -0.09244706 -0.025892256
0.0028004549 -0.040092163 -0.021346303 -0.0519795 -0.019095197 -0.04213787 -0.045904424 0.044432204
0.03409719 0.027369974 -0.05061514 0.048263572 -0.038989626 -0.011541165 -0.018465413 -0.009190443
0.0005360698 -0.08419066 0.003801273 -0.011594778 -0.05731858 -0.0073067546 -0.00828013 0.1224041
0.012286015 0.008735989 0.059442196 0.03671123 0.02552592 -0.05990785 0.08473075 -0.019907242
-0.023409236 -0.060152132 0.021536116 -0.010632367 0.0626842 0.05134215 -0.082916506 -0.036277935
0.040333863 0.020385172 -0.038476754 -0.0047067353 0.012729129 0.022725387 0.016411474 0.0053429636
-9.352256e-05 0.036551416 -0.10940632 0.041387666 -0.09312821 -0.029623507 0.020713316 -0.060955208
-0.07705988 -0.059190884 0.033578843 0.01844314 0.05552075 -0.07907521 0.038118836 -0.004665441
0.04272812 0.005966293 0.037062142 -0.058824457 -0.10204909 0.09706928 -0.10360776 -0.027777938
0.07440077 0.10358082 0.050407935 0.013813555 -0.022417972 -0.004043541 0.00018306755 0.08451111
-0.029372292 0.059201054 -0.054743093 -0.03148574 0.048979726 -0.010955092 -0.11000159 0.05949914
-0.00041476006 -0.007198673 0.00975719 0.05539304 -0.007984266 0.018691577 -0.00023109985 -0.008079375
-0.020038262 0.029436417 -0.044033345 0.03481932 0.022174044 0.0020141508 -0.029380653 -0.03932685
0.046370182 0.008900573 -0.029558204 0.033214524 0.06484235 0.010404651 -0.018100668 -0.06465705
0.10962814 0.028491486 -0.041063808 -0.07186183 -0.0045479177 0.08904696 -0.038983922 0.009803661
0.0040969946 0.05662145 0.05064158 0.035771396 0.021727802 0.0040103435 -0.00017980879 0.019038742
-0.025013195 0.0444613 -0.0031043459 -0.032925777 -0.09114079 -0.059406064 -0.013826256 0.049701266
-0.053981826 -0.042257447 -0.11049229 0.042785063 0.012885715 0.0146156335 -0.02790493 -0.017253382
00000000: 09ae a93d 564a 1d3d e2c2 e13b fb0e c9bd
00000010: d411 8ebd d74f debd 8235 a939 0e28 013e
00000020: 6c80 073d 2135 b6bc 8dd0 773d 29ad e93c
00000030: 8e22 cf3c 3d8a 6abd 450e 12bd bdde 913d
00000040: a1ed 0a3b 4465 72bc b881 c23d 8260 c0bd
00000050: 6106 c33d d0d6 273c 9714 afba 430c 4abd
00000060: 73df af3c 24a7 273d 4b60 f03d 5caa e13c
00000070: b1c6 0ebd 78f8 c13c 2c29 093d dbc0 073d
00000080: af4d 19bd adc1 4fbc 97f0 7ebc c578 d4bc
00000090: a073 e73c f1c9 82bd 3405 963d 231d a139
000000a0: 10ff aa3d c5c9 bd3c c0a3 b7bc 1bf0 77bd
000000b0: 47b4 5abd 35b7 613c 131c a7bc e6f0 eebc
000000c0: 9d0b abbd 87f3 79bd 5bb9 92bd d210 46bd
000000d0: 6542 62bd 0510 c13b c0bd e13c 8f49 5f3d
000000e0: e8d0 56bb 34f5 c1bd a9df f1bc 24c8 253d
000000f0: 3e1f d73c 6bc2 a0bd 3b91 5c3b 3452 203d
00000100: 5dbd b63b 8b7f f8bb 7d58 01bc 113e 623c
00000110: 0671 18bd 25f2 4e3b 7699 e9bc acae 4dbb
00000120: 2dad 873d 51a4 92bc c475 6d3b fd7e dc3c
00000130: 8e56 c13c 682b 67bb c60f 9aba 6e06 a5b9
00000140: 185c d73c e8e0 5c3d 47cd 2fbd 5b3e 293d
00000150: b0ae e03b f44b f83b 992a 353c 4d17 d6ba
00000160: 0dd2 8f3c 5a61 a13c 3ebc 3cbd 077a 4b3c
00000170: 273c 0a3c d9d9 d63c 755e a4ba 40d8 043b
00000180: 418d d13c c21e 853b 27e1 13bc 21f2 1b3d
00000190: 36e3 95bc 140b 0dbd 8772 b53d 3bbe 073d
000001a0: b914 113e b8fe dbbc 8e33 66bd bbd0 5bbd
000001b0: d215 44bd 81ba 3a3a e254 bdbd ff1b d4bc
000001c0: d687 373b ae37 24bd 71de aebc 75e8 54bd
000001d0: 886d 9cbc c298 2cbd 4706 3cbd 8bfe 353d
000001e0: 7fa9 0b3d ff36 e03c d251 4fbd 06b0 453d
000001f0: 96b3 1fbd 2817 3dbc c744 97bc 8393 16bc
00000200: 0987 0c3a 276c acbd c71e 793b 06f8 3dbc
00000210: e3c6 6abd 806d efbb 62a9 07bc 00af fa3d
00000220: 484b 493c 6521 0f3c a979 733d 845e 163d
00000230: bc1b d13c ef61 75bd 5187 ad3d 8314 a3bc
00000240: bac4 bfbc 1562 76bd 826c b03c 6133 2ebc
00000250: 9360 803d 254c 523d 21d0 a9bd 2c98 14bd
00000260: 1f35 253d cefe a63c cd99 1dbd f53a 9abb
00000270: d68d 503c 972a ba3c 5b71 863c 0714 af3b
00000280: 8b21 c4b8 f0b6 153d 6c10 e0bd 1d86 293d
00000290: 01ba bebd ffac f2bc f9ae a93c 2bac 79bd
000002a0: 92d1 9dbd 2472 72bd f889 093d 1116 973c
000002b0: ba69 633d 2ff2 a1bd 7f22 1c3d 8ee0 98bb
000002c0: ae03 2f3d e580 c33b 79ce 173d eaf1 70bd
000002d0: 1dff d0bd 42cc c63d 4e30 d4bd 8f8e e3bc
000002e0: 6e5f 983d 2e22 d43d 8d78 4e3d 4052 623c
000002f0: e5a5 b7bc ae7f 84bb d2f5 3f39 2914 ad3d
00000300: 299e f0bc ce7c 723d 4b3a 60bd 31f7 00bd
00000310: f79e 483d fc7c 33bc 8348 e1bd 5fb5 733d
00000320: 2774 d9b9 d9e2 ebbb 9fdc 1f3c d0e3 623d
00000330: 70d0 02bc 141f 993c 6553 72b9 5b5f 04bc
00000340: 4827 a4bc a424 f13c 4f5c 34bd b49e 0e3d
00000350: 57a6 b53c d8ff 033b b2af f0bc 3115 21bd
00000360: a9ee 3d3d b5d3 113c 0c24 f2bc f40b 083d
00000370: 11cc 843d 4578 2a3c da47 94bc ea6a 84bd
00000380: b884 e03d fa66 e93c 8632 28bd 4c2c 93bd
00000390: b306 95bb 415e b63d 9bad 1fbd 899f 203c
000003a0: 1540 863b e5eb 673d 8c6d 4f3d 0785 123d
000003b0: 81fe b13c 3369 833b 0e8b 3cb9 23f7 9b3c
000003c0: 79e8 ccbc 0d1d 363d 4872 4bbb 2edd 06bd
000003d0: 06a8 babd c653 73bd 8587 62bc 8e93 4b3d
000003e0: 0c1c 5dbd 2516 2dbd c849 e2bd 643f 2f3d
000003f0: 9b1e 533c 6976 6f3c e198 e4bc f756 8dbc

actor.2.bias f4 [256]
0.02562921 -0.08020473 0.009983035 -0.09900595 -0.07841522 -0.028569484 -0.024309034 -0.03497746
0.0077377735 -0.03684828 0.009918766 -0.045104016 -0.066936575 0.012839832 -0.038558565 -0.0072271563
0.060670044 0.024520267 -0.024108319 -0.0022810106 0.0160326 0.0060078455 -0.12697968 -0.039283425
-0.010504545 -0.065568134 -0.069014326 -0.15410836 0.013134252 -0.09130796 -0.076151095 -0.04953647
-0.101238236 -0.15518923 -0.029190157 -0.08756457 -0.012149095 -0.051907193 -0.04503212 -0.050092723
-0.036774285 0.017756145 -0.044048302 -0.01732277 -0.020175258 -0.016378066 0.015404507 -0.0010110473
5.3567433e-05 -0.013719808 -0.05113157 0.02211466 0.038277864 -0.058919985 -0.018312918 -0.05122683
-0.04272171 -0.003232206 -0.059950974 -0.027205266 -0.09671488 -0.009065706 -0.0005139674 -0.06691227
0.030170698 -0.015724879 -0.020363338 -0.00999909 0.03130162 -0.026629344 -0.066370755 -0.03830907
0.016445462 -0.0400821 0.028405182 -0.034732375 -0.047440358 0.009419909 -0.035993543 -0.059319664
-0.038415957 -0.028211396 -0.038873088 -0.07347825 -0.045964926 -0.04849916 -0.045904152 -0.04296921
-0.011233862 -0.022241376 -0.04629265 0.011094899 0.018781038 -0.088432096 -0.022207052 -0.11729518
-0.050739333 0.026142327 0.041264374 -0.037913483 -0.048675157 -0.046784867 -0.040721104 -0.017165126
-0.10944612 -0.027041435 0.0014689997 -0.013093577 0.014094039 -0.067446016 -0.05543689 -0.13201632
-0.04939636 -0.008250149 -0.031090567 -0.011441308 -0.08786558 -0.03919758 0.022022044 -0.056390308
-0.047603954 -0.027902776 0.016456012 -0.06079494 0.0069951015 -0.037060563 -0.07812684 -0.01612246
-0.023499534 -0.08089121 0.033012275 -0.046167877 -0.0025472182 -0.037548747 -0.056372803 -0.022562873
-0.038711257 -0.043601148 0.0071026376 -0.08314497 -0.026612544 -0.09286465 -0.019961908 -0.046557084
0.053286176 -0.007530056 0.034243315 0.026984405 0.024825372 -0.02745609 -0.13467357 -0.055754658
-0.029545937 -0.08062354 -0.05618235 -0.008545055 -0.08428393 -0.08067309 -0.08172294 -0.028201737
-0.012403839 -0.0056502516 -0.021493651 -0.06371579 -0.09940003 -0.0064889607 0.012140806 -0.028554056
-0.04660968 0.024701742 -0.065070294 -0.012116194 -0.08636752 -0.044936154 -0.049348872 -0.024874426
-0.036696654 -0.033255566 -0.07715212 -0.053906 -0.096311025 -0.02818812 -0.07961185 0.017837707
0.013781904 -0.041403774 0.024139795 -0.060654122 0.015891341 0.04528713 0.0015747796 0.0056517352
0.033526767 0.00787991 -0.06991769 -0.052227538 -0.014882129 -0.01603719 -0.08498871 0.017206443
-0.063013315 -0.006006398 -0.080963045 -0.012870966 -0.012545378 0.009514907 -0.014686755 -0.041526493
-0.007983905 -0.046093762 -0.0554782 -0.08527713 -0.015179568 -0.03800768 -0.114352785 0.021747295
-0.026423544 0.019929025 -0.0029849946 -0.043302495 -0.033134367 -0.016371401 -0.0060716076 0.02977517
-0.08608286 -0.0686533 -0.038215473 -0.010757983 0.031155096 -0.012715901 -0.05661309 -0.0010057191
-0.042354044 -0.08503371 0.060977545 -0.041358463 -0.0015986564 -0.09650243 -0.055708908 -0.06351909
0.03277014 -0.01776518 -0.024480592 0.01988512 -0.038953096 -0.0113038495 -0.15261415 -0.051255327
-0.02864275 -0.0100951195 -0.03855476 -0.09919659 -0.044192195 -0.08600373 -0.006050096 -0.0864937
00000000: 59f4 d13c 6142 a4bd e28f 233c a2c3 cabd
00000010: 2998 a0bd 8d0a eabc bd23 c7bc 8644 0fbd
00000020: 268d fd3b 39ee 16bd 5282 223c fdbe 38bd
00000030: 0b16 89bd 295e 523c 96ef 1dbd c8d1 ecbb
00000040: 2781 783d bade c83c cf7e c5bc 027d 15bb
00000050: cd56 833c 76dd c43b f606 02be a8e7 20bd
00000060: 411b 2cbc 9648 86bd 6257 8dbd 95ce 1dbe
00000070: 0c31 573c abff babd 1bf5 9bbd c1e6 4abd
00000080: fe55 cfbd ede9 1ebe 3220 efbc 0e55 b3bd
00000090: ff0c 47bc a39c 54bd 9a73 38bd 072e 4dbd
000000a0: a2a0 16bd 5675 913c fe6b 34bd 7be8 8dbc
000000b0: 9546 a5bc 4b2b 86bc 2f63 7c3c 1e85 84ba
000000c0: 98ad 6038 0cc9 60bc 566f 51bd ce29 b53c
000000d0: 40c9 1c3d 1556 71bd f904 96bc 39d3 51bd
000000e0: f6fc 2ebd 6bd3 53bb 278f 75bd 94dd debc
000000f0: 7312 c6bd 5488 14bc c5bb 06ba 4d09 89bd
00000100: 8a28 f73c 76d1 80bc 04d1 a6bc 39d3 23bc
00000110: 2136 003d c825 dabc 64ed 87bd f9e9 1cbd
00000120: a2b8 863c 212d 24bd fcb1 e83c 8943 0ebd
00000130: d250 42bd f655 1a3c f76d 13bd 2df9 72bd
00000140: 0d5a 1dbd 961b e7bc 6339 1fbd c47b 96bd
00000150: b845 3cbd 0ea7 46bd fe05 3cbd 7b00 30bd
00000160: 3b0e 38bc 8c33 b6bc 5d9d 3dbd 61c7 353c
00000170: b1da 993c e31b b5bd 90eb b5bc 7538 f0bd
00000180: 0cd4 4fbd 6f28 d63c d504 293d 2b4b 1bbd
00000190: 9a5f 47bd 7da1 3fbd 2ccb 26bd e19d 8cbc
000001a0: 4a25 e0bd 0086 ddbc 738b c03a 7186 56bc
000001b0: afea 663c 2321 8abd cb11 63bd 492f 07be
000001c0: d653 4abd a22b 07bc a5b1 febc 5374 3bbc
000001d0: dff2 b3bd a48d 20bd 9367 b43c 86f9 66bd
000001e0: 5dfc 42bd 5d94 e4bc c2ce 863c 1d04 79bd
000001f0: 2a37 e53b d1cc 17bd f700 a0bd 4013 84bc
00000200: 1882 c0bc 4aaa a5bd e137 073d 871a 3dbd
00000210: 3bef 26bb b7cc 19bd 2be7 66bd c6d5 b8bc
00000220: b28f 1ebd 1e97 32bd 3ebd e83b e947 aabd
00000230: 8d02 dabc d22f bebd 2887 a3bc a4b2 3ebd
00000240: 9b42 5a3d b0be f6bb b842 0c3d 660e dd3c
00000250: 945e cb3c 98eb e0bc dee7 09be ff5e 64bd
00000260: 520a f2bc f41d a5bd 771f 66bd 8f00 0cbc
00000270: 0e9d acbd ef37 a5bd 5b5e a7bd 5407 e7bc
00000280: 7939 4bbc bf25 b9bb 7413 b0bc 6d7d 82bd
00000290: 3e92 cbbd 59a1 d4bb 3bea 463c 32ea e9bc
000002a0: cbe9 3ebd 4f5b ca3c 9343 85bd 0083 46bc
000002b0: 74e1 b0bd f90e 38bd 0b22 4abd 74c5 cbbc
000002c0: 3b4f 16bd fd36 08bd ee01 9ebd 8acc 5cbd
000002d0: b73e c5bd c6ea e6bc 8a0b a3bd 6220 923c
000002e0: 7fcd 613c 0197 29bd d2c0 c53c 7570 78bd
000002f0: 8f2e 823c ff7e 393d d668 ce3a 3132 b93b
00000300: 5d53 093d bd1a 013c 0131 8fbd 8bec 55bd
00000310: 2cd4 73bc 6d60 83bc 900e aebd 87f4 8c3c
00000320: 200d 81bd 51d1 c4bb f4cf a5bd bfe0 52bc
00000330: 218b 4dbc 6ae4 1b3c b7a0 70bc af17 2abd
00000340: edce 02bc d0cc 3cbd 1c3d 63bd c7a5 aebd
00000350: b9b3 78bc f1ad 1bbd cb31 eabd 6227 b23c
00000360: 3076 d8bc 3242 a33c e69f 43bb f55d 31bd
00000370: e7b7 07bd 511d 86bc 56f4 c6bb 0feb f33c
00000380: 364c b0bd 1a9a 8cbd d487 1cbd 4042 30bc
00000390: f938 ff3c 5b56 50bc 21e3 67bd 55d2 83ba
000003a0: 6f7b 2dbd 2726 aebd 97c3 793d 7e67 29bd
000003b0: 028a d1ba 11a3 c5bd 062f 64bd 4c16 82bd
000003c0: fb39 063d 4888 91bc 868b c8bc 1fe6 a23c
000003d0: 488d 1fbd c833 39bc e246 1cbe 1bf1 51bd
000003e0: 33a4 eabc 0066 25bc 99eb 1dbd 9527 cbbd
000003f0: e002 35bd b922 b0bd e23f c6bb 9c23 b1bd

actor.4.weight f4 [128, 256]
-0.005091882 0.08972483 0.016409421 0.061226662 -0.012038086 -0.005469319 0.035539456 -0.041984066
-0.024766203 -0.08423389 0.006980932 -0.042592786 -0.07045735 0.06399883 0.034029078 0.004202938
-0.059108824 -0.07791845 0.058750607 -0.015941413 -0.028772801 0.026637498 0.062265743 -0.06227361
0.025584327 0.0063259494 -0.003044714 0.2137898 0.07632754 -0.023036242 -0.067342825 -0.07667236
-0.13620985 -0.18022326 -0.08814087 -0.04204008 0.07505063 -0.07873318 -0.038153227 0.007677603
-0.025937568 -0.036679544 -0.023342155 0.06525356 0.095536016 -0.08550668 0.03523492 -0.008792994
0.034477357 0.06851121 0.14708889 -0.04739589 -0.035609275 0.008456588 -0.053051494 -0.11052622
0.021678308 0.022601068 -0.0060013346 0.008195765 0.033502817 -0.03504002 -0.043293018 0.083033234
-0.07637923 -0.016303657 -0.10026883 -0.015302586 -0.030675666 0.052917328 0.036858905 0.0068640835
0.053859673 -0.05391509 -0.0881225 -0.095844835 -0.09383235 -0.0038602273 0.07494196 0.0581903
-0.012825083 -0.07086286 0.018440291 -0.0014653155 0.11315256 0.0166297 0.0258925 0.07548594
-0.032184836 0.02482306 0.044405017 -0.043577023 -0.058733717 0.078523904 0.023557052 -0.013100424
0.006448266 -0.07044775 -0.003294423 0.005741479 0.03304005 0.07550497 0.015782893 0.019141471
-0.13093193 0.06522959 -0.07515096 0.068888426 -0.05750587 -0.0048728893 0.07370333 0.12689252
0.05290507 0.035822943 -0.035427224 -0.024699738 -0.06135068 0.13652276 0.04488128 -0.09032595
0.0024902264 -0.023289142 -0.012606066 -0.0435775 0.008312839 0.017504716 -0.113644555 0.039949216
-0.03146311 0.046540815 -0.080415756 -0.06510599 0.00058609527 -0.04263596 0.00790115 0.062259596
-0.0035477325 0.0471985 0.0011352584 -0.08739848 -0.052445464 0.02941377 -0.0037536612 0.07243062
0.00359415 -0.0027534394 -0.038335115 -0.01586294 0.005115985 -0.09457859 0.0840087 0.01579838
0.0067491783 0.057618078 -0.041644666 -0.061198946 -0.014415519 0.01056819 0.1387973 0.0021356945
0.038991306 0.0022071234 -0.033130184 0.00031663562 0.086749874 -0.016802745 -0.04184483 -0.0076176976
0.06268891 -0.0119821355 -0.033702914 -0.08965573 -0.011072046 -0.007625297 -0.009492037 0.018645378
-0.05519772 0.058730263 -0.06006417 0.0128772305 0.024315195 -0.051898498 -0.0033056466 0.0033382708
-0.029921023 0.04415557 0.056975152 0.04210369 0.039586794 0.014428907 -0.036469746 -0.0054207835
-0.03477261 -0.00086623663 -0.006725308 -0.020318378 -0.07368985 -0.0061995527 0.08664721 -0.058089904
0.030873526 -0.015831837 -0.032736987 -0.18806507 0.0045908154 0.06852683 0.055840097 -0.10581084
-0.05952958 0.05922582 -0.020438628 -0.013856047 0.029918088 0.099836886 0.03157006 -0.018783903
-0.031678338 -0.029994868 0.10653876 0.012579894 0.085428484 -0.021575995 -0.04580366 0.03763883
0.054217175 0.017589493 -0.043674357 0.079055265 0.022557788 0.08483779 0.104953855 0.06742329
0.07126627 0.05998627 -0.0010130807 0.016944764 -0.04601904 0.04480463 0.0030960143 -0.04528195
-0.043436307 0.07286682 -0.0010160265 -0.08366352 -0.02149644 0.04056879 0.00095900707 0.0015762894
-0.032596987 0.030868983 0.005359323 -0.0010758 -0.00013100763 0.09225702 0.0029713286 0.030080136
00000000: cdd9 a6bb a7c1 b73d 0d6d 863c cfc8 7a3d
00000010: 643b 45bc f937 b3bb d291 113d 7cf7 2bbd
00000020: 7ee2 cabc d182 acbd 4dc0 e43b c675 2ebd
00000030: f14b 90bd d211 833d 1362 0b3d cdb8 893b
00000040: 181c 72bd b593 9fbd 7aa4 703d 9197 82bc
00000050: f0b4 ebbc e236 da3c 5d0a 7f3d 9d12 7fbd
00000060: 3996 d13c e949 cf3b d389 47bb b7eb 5a3e
00000070: 9d51 9c3d 80b6 bcbc 09eb 89bd 6606 9dbd
00000080: 987a 0bbe 728c 38be 3383 b4bd 3832 2cbd
00000090: 25b4 993d dd3e a1bd 8f46 1cbd 6794 fb3b
000000a0: 067b d4bc 4a3d 16bd 0c38 bfbc a9a3 853d
000000b0: 63a8 c33d 201e afbd 7e52 103d 7d10 10bc
000000c0: 2138 0d3d 9b4f 8c3d 789e 163e 3122 42bd
000000d0: 08db 11bd 808d 0a3c 864c 59bd 925b e2bd
000000e0: b596 b13c e025 b93c d8a6 c4bb 8847 063c
000000f0: 403a 093d 2086 0fbd 0554 31bd 540d aa3d
00000100: b76c 9cbd 3f8f 85bc bf59 cdbd b3b7 7abc
00000110: 894b fbbc d7bf 583d 5df9 163d 1bec e03b
00000120: f69b 5c3d 12d6 5cbd 9279 b4bd 4c4a c4bd
00000130: 2d2b c0bd defb 7cbb 2c7b 993d f458 6e3d
00000140: 4c20 52bc 8c20 91bd 1810 973c d40f c0ba
00000150: 88bc e73d 023b 883c 821c d43c 5f98 9a3d
00000160: 3fd4 03bd bb59 cb3c 09e2 353d d27d 32bd
00000170: c492 70bd 24d1 a03d b8fa c03c 29a3 56bc
00000180: fa4b d33b e946 90bd 3fe7 57bb 0423 bc3b
00000190: 0155 073d 5aa2 9a3d 204b 813c 93ce 9c3c
000001a0: 0513 06be 1797 853d bfe8 99bd 6015 8d3d
000001b0: 468b 6bbd c2ac 9fbb c5f1 963d 1df0 013e
000001c0: fdb2 583d 14bb 123d 231c 11bd 1b57 cabc
000001d0: da4a 7bbd 9fcc 0b3e 6fd5 373d d0fc b8bd
000001e0: 1133 233b dfc8 bebc ac89 4ebc 527e 32bd
000001f0: 9332 083c 0d66 8f3c 7abe e8bd caa1 233d
00000200: 76df 00bd 95a1 3e3d 04b1 a4bd 4a56 85bd
00000210: 30a4 193a 0ba3 2ebd d373 013c eb03 7f3d
00000220: 1381 68bb 3753 413d f3cc 943a f9fd b2bd
00000230: 0ed1 56bd 26f5 f03c fcff 75bb 8156 943d
00000240: d58b 6b3b 0c73 34bb 4805 1dbd fff2 81bc
00000250: fea3 a73b 6bb2 c1bd c10c ac3d 9b6b 813c
00000260: 3628 dd3b ef00 6c3d 9993 2abd bfab 7abd
00000270: 122f 6cbc 3426 2d3c e120 0e3e 02f7 0b3b
00000280: 59b5 1f3d 63a5 103b 84b3 07bd 1d02 a639
00000290: eba9 b13d e9a5 89bc 7c65 2bbd e19d f9bb
000002a0: 0b63 803d b850 44bc 110c 0abd 6c9d b7bd
000002b0: 8767 35bc a1dd f9bb 7d84 1bbc 31be 983c
000002c0: 0117 62bd 258f 703d d905 76bd 05fb 523c
000002d0: a930 c73c 8593 54bd 8ca3 58bb e4c6 5a3b
000002e0: ef1c f5bc 79dc 343d c75e 693d eb74 2c3d
000002f0: c325 223d 3967 6c3c 4d61 15bd d4a0 b1bb
00000300: b96d 0ebd 2814 63ba f95f dcbb ba72 a6bc
00000310: b4ea 96bd 9e25 cbbb 1874 b13d aeef 6dbd
00000320: 7aea fc3c c5b1 81bc 3817 06bd 2194 40be
00000330: 8d6e 963b cb57 8c3d 96b8 643d 5bb3 d8bd
00000340: 4ad5 73bd c696 723d e96e a7bc 7904 63bc
00000350: c716 f53c 4877 cc3d 9b4f 013d b3e0 99bc
00000360: 25c1 01bd ccb7 f5bc fe30 da3d e61b 4e3c
00000370: 21f5 ae3d 24c0 b0bc 9e9c 3bbd 2c2b 1a3d
00000380: d412 5e3d d717 903c e2e3 32bd bae7 a13d
00000390: 1ccb b83c 6fbf ad3d 0cf2 d63d 3915 8a3d
000003a0: 0df4 913d 2ab4 753d 59c9 84ba bfcf 8a3c
000003b0: 767e 3cbd 0f85 373d 80e6 4a3b 9179 39bd
000003c0: 45ea 31bd 333b 953d 312c 85ba c857 abbd
000003d0: 4d19 b0bc 762b 263d e065 7b3a 7f9b ce3a
000003e0: 6b84 05bd f3e0 fc3c 439d af3b dc01 8dba
000003f0: 185f 09b9 40f1 bc3d 9fba 423b 9e6a f63c

actor.4.bias f4 [128]
-0.057631683 0.060071502 -0.05524491 0.014720613 -0.084425196 0.0002578728 -0.039997254 -0.061585344
0.058957245 -0.0448939 0.03732336 0.054785658 0.0176302 -0.070536435 -0.067574196 -0.10081315
-0.04064195 0.062402308 0.06143933 -0.041698676 0.014802743 -0.01963459 0.039824452 0.018789817
0.038892813 -0.068599164 -0.04306155 0.073440254 0.027978273 -0.07084935 0.013632858 -0.06628422
-0.006472537 0.018656828 -0.027984625 0.06385314 -0.01756803 0.021125752 -0.021290062 -0.009436399
-0.11450464 -0.061914176 0.06849285 0.0054069185 -0.01474883 -0.0549375 -0.016303986 -0.00368857
-0.04423702 -0.09236421 -0.008962344 0.0107260365 0.024293195 0.008459074 -0.059259024 0.05354878
-0.007831064 -0.06304544 -0.004202824 -0.018069563 0.063913025 -0.029006967 -0.046663266 -0.04478573
0.026791086 -0.05654228 0.011639241 -0.008289415 -0.002686259 0.030853702 0.004384125 0.047137693
-0.07113225 -0.057493478 0.061472435 0.08884114 -0.048757024 0.011765256 0.022234367 -0.05909034
-0.0946596 -0.0030335698 0.022411617 0.032460503 -0.0024891074 0.04830503 -0.012195476 0.03598818
-0.037228417 0.002760644 -0.01819868 0.06483893 0.0040463684 -0.0712565 -0.030052528 -0.019504055
0.066471115 -0.0030119591 0.065672144 -0.037575066 0.02697239 0.031017065 0.009789346 -0.052436143
-0.046383798 -0.0068206666 -0.075320184 -0.092372805 -0.0080448445 0.050800044 0.07560954 -0.027088052
-0.00046861044 -0.069583595 0.005641963 0.01449505 -0.06675499 0.015125509 -0.021467691 0.014844362
-0.028818037 0.018104188 0.038424842 0.05381519 -0.045403145 -0.026860138 -0.021550678 0.07814862
00000000: 330f 6cbd 890d 763d 7d48 62bd ba2e 713c
00000010: 1ee7 acbd 1a33 8739 29d4 23bd ea40 7cbd
00000020: 277d 713d abe2 37bd 61e0 183d ed66 603d
00000030: 366d 903c 6875 90bd 5764 8abd 2077 cebd
00000040: 2c78 26bd 9099 7f3d cfa7 7b3d 3bcc 2abd
00000050: 3487 723c b8d8 a0bc f71e 233d 1aed 993c
00000060: 124e 1f3d b87d 8cbd 4f61 30bd d867 963d
00000070: b132 e53c 7719 91bd 5a5c 5f3c 05c0 87bd
00000080: 9317 d4bb 34d6 983c 0340 e5bc 6fc5 823d
00000090: d4ea 8fbc ea0f ad3c 7f68 aebc 209b 1abc
000000a0: 6981 eabd b899 7dbd fb45 8c3d 852c b13b
000000b0: 14a5 71bc 2506 61bd f08f 85bc f0bb 71bb
000000c0: e131 35bd 7229 bdbd ccd6 12bc 42bc 2f3c
000000d0: 8602 c73c ee97 0a3c 97b9 72bd f755 5b3d
000000e0: dd4d 00bc f81d 81bd d8b7 89bb 9f06 94bc
000000f0: d5e4 823d 05a0 edbc fb21 3fbd 3e71 37bd
00000100: fb78 db3c e198 67bd 84b2 3e3c 54d0 07bc
00000110: f30b 30bb e7c0 fc3c b5a8 8f3b 7413 413d
00000120: c9ad 91bd 487e 6bbd 85ca 7b3d 58f2 b53d
00000130: 72b5 47bd 0fc3 403c d924 b63c b608 72bd
00000140: e4dc c1bd dbce 46bb 9198 b73c 4ef5 043d
00000150: 4b20 23bb 7fdb 453d 89cf 47bc 5868 133d
00000160: d37c 18bd eceb 343b 6615 95bc 46ca 843d
00000170: 6697 843b eeee 91bd b830 f6bc f8c6 9fbc
00000180: 0222 883d 4a64 45bb 1e7f 863d 50e8 19bd
00000190: 34f5 dc3c 8017 fe3c 7e63 203c 48c7 56bd
000001a0: f0fc 3dbd e67f dfbb 7841 9abd f42d bdbd
000001b0: 86ce 03bc b513 503d 2dd9 9a3d c3e7 ddbc
000001c0: d4af f5b9 d881 8ebd 37e0 b83b a57c 6d3c
000001d0: d7b6 88bd fcd0 773c 03dd afbc c435 733c
000001e0: ce13 ecbc 3c4f 943c 5e63 1d3d 516d 5c3d
000001f0: a6f8 39bd cb09 dcbc 0c8b b0bc 620c a03d

actor.6.weight f4 [29, 128]
-0.016490852 -0.015683247 -0.07318795 -0.03937855 -0.028486675 0.010364007 0.010169359 0.06007333
-0.057613876 0.026849013 0.038785025 -0.060211074 0.029643971 -0.1104788 0.059099704 -0.12207051
-0.005236713 0.022965675 0.02567052 0.061371338 -0.029012484 0.029231941 -0.03994076 -0.019178532
-0.07073008 0.07219565 0.05366162 0.05064763 -0.026857348 0.037250906 0.01572402 0.056267194
0.057780568 0.07964235 0.041422993 0.048329998 0.02847305 0.013082268 0.0082167415 0.035570014
-0.004783511 -0.035588283 -0.010617661 -0.0678078 -0.0096008 -0.03736648 -0.027412329 -0.020357683
-0.01607133 -0.21949941 -0.060860343 0.026455784 0.067848794 -0.032873735 -0.02426247 0.06973268
0.0348306 -0.09602132 0.028127305 -0.040194944 -0.037495542 -0.036504358 -0.04200567 0.078611866
-0.031350683 -0.019246683 0.04435107 -0.047145087 -0.02725584 0.057677373 -0.080263905 -0.01460658
0.020198362 0.016004806 -0.040224943 -0.025195505 0.0032478115 0.016601741 0.010983053 0.08286905
0.028762931 -0.036648955 -0.07961185 -0.08358345 0.06909581 0.056477465 -0.057733037 -0.06333941
-0.03552861 -0.021013161 -0.047676604 -0.09841304 0.07707215 -0.08087596 0.01785296 0.1398782
-0.10399243 -0.012416349 0.012012974 0.059542034 -0.12022555 -0.017913856 -0.024341056 -0.027066603
0.010718296 0.027600534 0.10369084 0.032718167 0.015709972 0.032943364 0.008804006 -0.044530924
-0.02569028 0.038612455 -0.035561275 0.07136398 0.008245194 -0.035443608 -0.054752775 0.055427577
-0.03721321 -0.040333692 0.07198179 0.03975861 -0.008597022 0.040834755 0.033616252 -0.012110176
0.07774168 -0.09245634 0.08434698 0.057537418 -0.004529154 0.004543135 0.028434237 0.009584861
0.03830167 0.019943053 -0.034900315 0.0423702 -0.11781729 0.10069675 -0.16136561 0.059443258
0.04189836 -0.020001598 0.009947022 -0.04372324 0.064858794 -0.07092378 0.02275789 -0.07048089
-0.096044876 0.010889368 0.064605586 -0.009990282 -0.0072676833 -0.07128137 0.056734506 0.028450929
0.019178806 -0.036568526 -0.07276728 -0.04414718 0.044952273 0.00694916 -0.015857048 -0.036568955
0.053630523 -0.03183738 -0.029561508 0.041201096 0.04054777 -0.10597037 -0.046187166 -0.027959917
0.044126086 0.07624879 -0.054367285 0.038981695 0.035564534 -0.0015334709 0.03118456 0.057279978
0.010609028 0.051087685 0.01447646 -0.03174076 0.024644004 -0.01759548 0.022190833 -0.10754149
0.033235252 0.069590375 -0.010860101 -0.013156694 0.015218023 0.020995574 0.022821683 0.04790995
0.049344156 0.04899635 -0.03487269 -0.07457563 0.034926336 -0.015659548 0.019428723 -0.11146864
0.059920095 0.049375184 -0.050798528 0.054162975 -0.09227468 -0.0832831 0.11351236 -0.014238863
0.048087105 0.055051707 0.08259974 0.08097521 0.028044753 -0.01763975 -0.09008383 -0.08287363
0.02075399 -0.06772436 0.02221824 0.0049610035 0.031763427 0.052851934 0.023124216 -0.06744387
0.0024756615 -0.019126449 -0.053614877 0.021141533 -0.027888613 -0.13264246 0.019539682 0.06777999
0.07932864 0.050327312 -0.07129898 -0.017296633 0.025553035 0.08337624 -0.069376566 -0.051060043
-0.018310651 -0.048991818 -0.0019540752 -0.030104136 -0.015229864 -0.06333854 -0.039679326 -0.002097741
00000000: d317 87bc 277a 80bc 90e3 95bd 674b 21bd
00000010: e35c e9bc cccd 293c 629d 263c 740f 763d
00000020: 87fc 6bbd 76f2 db3c 0cdd 1e3d e39f 76bd
00000030: ead7 f23c b642 e2bd 8812 723d 1b00 fabd
00000040: bc98 abbb 8322 bc3c fb4a d23c 8360 7b3d
00000050: 97ab edbc d377 ef3c ec98 23bd 4c1c 9dbc
00000060: efda 90bd 50db 933d 49cc 5b3d e473 4f3d
00000070: f103 dcbc 6894 183d a9cf 803c 6e78 663d
00000080: 51ab 6c3d 871b a33d 28ab 293d adf5 453d
00000090: 5040 e93c 0257 563c 839f 063c ddb1 113d
000000a0: 00bf 9cbb 05c5 11bd b3f5 2dbc d1de 8abd
000000b0: ad4c 1dbc 980d 19bd d28f e0bc 28c5 a6bc
000000c0: 06a8 83bc 74c4 60be b248 79bd cdb9 d83c
000000d0: 4ff4 8a3d 9ca6 06bd 16c2 c6bc 02d0 8e3d
000000e0: 88aa 0e3d d3a6 c4bd 3c6b e63c 74a3 24bd
000000f0: ed94 19bd 9885 15bd 230e 2cbd 42ff a03d
00000100: 9369 00bd 38ab 9dbc 78a9 353d 351b 41bd
00000110: a447 dfbc 1c3f 6c3d 6761 a4bd 7050 6fbc
00000120: 0977 a53c 831c 833c e9c2 24bd ce66 cebc
00000130: 3cd9 543b 6000 883c 43f2 333c 40b7 a93d
00000140: 3da0 eb3c 371d 16bd 8a0b a3bd cd2d abbd
00000150: 1b82 8d3d ea54 673d 7a79 6cbd 18b8 81bd
00000160: 7386 11bd cb23 acbc 8b48 43bd c78c c9bd
00000170: 01d8 9d3d 4ca2 a5bd 5f40 923c 3b3c 0f3e
00000180: fcf9 d4bd f16d 4bbc 11d2 443c 59e2 733d
00000190: d038 f6bd 14c0 92bc e566 c7bc c8ba ddbc
000001a0: cb9b 2f3c 841a e23c dd5b d43d 7c03 063d
000001b0: 33b2 803c 9fef 063d ad3e 103c 0f66 36bd
000001c0: 6c74 d2bc 1828 1e3d b3a8 11bd 4727 923d
000001d0: da16 073c 512d 11bd 7244 60bd 0708 633d
000001e0: e16c 18bd f134 25bd 306b 933d edd9 223d
000001f0: 86da 0cbc 5842 273d 32b1 093d c269 46bc
00000200: 0837 9f3d c059 bdbd 1cbe ac3d 5bac 6b3d
00000210: 4c69 94bb 94de 943b ebee e83c d209 1d3c
00000220: 36e2 1c3d 9d5f a33c a2f3 0ebd 608c 2d3d
00000230: 314a f1bd 193a ce3d 073d 25be c67a 733d
00000240: 9d9d 2b3d 64da a3bc d6f8 223c 2417 33bd
00000250: b0d4 843d 7d40 91bd c16e ba3c 4958 90bd
00000260: 2db3 c4bd 5269 323c ef4f 843d 48ae 23bc
00000270: bf25 eebb f8fb 91bd 7162 683d ec11 e93c
00000280: df1c 9d3c e1c8 15bd 0307 95bd acd3 34bd
00000290: e01f 383d c7b5 e33b a4e6 81bc 54c9 15bd
000002a0: aeab 5b3d ea67 02bd fa2a f2bc 7bc2 283d
000002b0: 6b15 263d fe06 d9bd c12e 3dbd 320c e5bc
000002c0: 8ebd 343d 5328 9c3d 3bb0 5ebd 45ab 1f3d
000002d0: 1eac 113d bffe c8ba c376 ff3c 699e 6a3d
000002e0: 7dd1 2d3c 5241 513d ad2e 6d3c 9902 02bd
000002f0: 39e2 c93c 6524 90bc 8dc9 b53c b63e dcbd
00000300: b021 083d 6685 8e3d 91ee 31bc 2d8f 57bc
00000310: 0455 793c e9fe ab3c 8af4 ba3c 393d 443d
00000320: 191d 4a3d 66b0 483d aad6 0ebd 1cbb 98bd
00000330: eb0e 0f3d 7448 80bc fc28 9f3c ac49 e4bd
00000340: c66e 753d a23d 4a3d 1e12 50bd ffd9 5d3d
00000350: 82fa bcbd 5490 aabd 2b79 e83d 1f4a 69bc
00000360: fcf6 443d e67d 613d 0d2a a93d 55d6 a53d
00000370: 1cbe e53c 3d81 90bc df7d b8bd a6b9 a9bd
00000380: 4604 aa3c 12b3 8abd 0703 b63c ea8f a23b
00000390: 5e1a 023d 457b 583d ff6e bd3c 0320 8abd
000003a0: b53e 223b 12af 9cbc 469b 5bbd 0231 ad3c
000003b0: a976 e4bc 6dd3 07be af11 a03c 3cd0 8a3d
000003c0: 0e77 a23d 0324 4e3d 3305 92bd abb1 8dbc
000003d0: 9954 d13c 2ac1 aa3d 4d15 8ebd 5624 51bd
000003e0: 3800 96bc a5ab 48bd f10f 00bb f39c f6bc
000003f0: ae86 79bc a3b7 81bd ca86 22bd 417a 09bb

actor.6.bias f4 [29]
0.07643481 -0.023268415 0.043896537 0.07572591 -0.0011595152 -0.016654406 -0.053787198 -0.05051043
-0.0626023 -0.022614634 -0.08546066 0.021593427 -0.10687964 0.10156906 0.13260974 0.07754816
-0.015744055 0.04802023 0.06179603 -0.060164995 0.078070834 -0.010407957 0.04424363 0.07529297
0.041515723 -0.065876976 -0.09169011 -0.038464945 -0.012657218
00000000: db89 9c3d 679d bebc dbcc 333d 3016 9b3d
00000010: e0fa 97ba d26e 88bc f74f 5cbd 06e4 4ebd
00000020: a235 80bd 5342 b9bc 0006 afbd b3e4 b03c
00000030: b6e3 dabd 7003 d03d d9ca 073e 92d1 9e3d
00000040: adf9 80bc dcb0 443d d51d 7d3d 926f 76bd
00000050: 9ae3 9f3d 2386 2abc cf38 353d 3333 9a3d
00000060: 640c 2a3d 82ea 86bd 06c8 bbbd 6b8d 1dbd
00000070: 3860 4fbc
