src/lerobot/robots/unitree_g1/assets/g1/locomotion/motion.pt (torch, 145745 bytes, 10 tensors)

hidden_state f4 [1, 1, 64]
000000 00 00 00 00 00 00 00 00 00 00 00 00 00 00 00 00
       0.0 0.0 0.0 0.0
000010 00 00 00 00 00 00 00 00 00 00 00 00 00 00 00 00
       0.0 0.0 0.0 0.0
000020 00 00 00 00 00 00 00 00 00 00 00 00 00 00 00 00
       0.0 0.0 0.0 0.0
000030 00 00 00 00 00 00 00 00 00 00 00 00 00 00 00 00
       0.0 0.0 0.0 0.0
000040 00 00 00 00 00 00 00 00 00 00 00 00 00 00 00 00
       0.0 0.0 0.0 0.0
000050 00 00 00 00 00 00 00 00 00 00 00 00 00 00 00 00
       0.0 0.0 0.0 0.0
000060 00 00 00 00 00 00 00 00 00 00 00 00 00 00 00 00
       0.0 0.0 0.0 0.0
000070 00 00 00 00 00 00 00 00 00 00 00 00 00 00 00 00
       0.0 0.0 0.0 0.0
000080 00 00 00 00 00 00 00 00 00 00 00 00 00 00 00 00
       0.0 0.0 0.0 0.0
000090 00 00 00 00 00 00 00 00 00 00 00 00 00 00 00 00
       0.0 0.0 0.0 0.0
0000a0 00 00 00 00 00 00 00 00 00 00 00 00 00 00 00 00
       0.0 0.0 0.0 0.0
0000b0 00 00 00 00 00 00 00 00 00 00 00 00 00 00 00 00
       0.0 0.0 0.0 0.0
0000c0 00 00 00 00 00 00 00 00 00 00 00 00 00 00 00 00
       0.0 0.0 0.0 0.0
0000d0 00 00 00 00 00 00 00 00 00 00 00 00 00 00 00 00
       0.0 0.0 0.0 0.0
0000e0 00 00 00 00 00 00 00 00 00 00 00 00 00 00 00 00
       0.0 0.0 0.0 0.0
0000f0 00 00 00 00 00 00 00 00 00 00 00 00 00 00 00 00
       0.0 0.0 0.0 0.0

cell_state f4 [1, 1, 64]
000000 00 00 00 00 00 00 00 00 00 00 00 00 00 00 00 00
       0.0 0.0 0.0 0.0
000010 00 00 00 00 00 00 00 00 00 00 00 00 00 00 00 00
       0.0 0.0 0.0 0.0
000020 00 00 00 00 00 00 00 00 00 00 00 00 00 00 00 00
       0.0 0.0 0.0 0.0
000030 00 00 00 00 00 00 00 00 00 00 00 00 00 00 00 00
       0.0 0.0 0.0 0.0
000040 00 00 00 00 00 00 00 00 00 00 00 00 00 00 00 00
       0.0 0.0 0.0 0.0
000050 00 00 00 00 00 00 00 00 00 00 00 00 00 00 00 00
       0.0 0.0 0.0 0.0
000060 00 00 00 00 00 00 00 00 00 00 00 00 00 00 00 00
       0.0 0.0 0.0 0.0
000070 00 00 00 00 00 00 00 00 00 00 00 00 00 00 00 00
       0.0 0.0 0.0 0.0
000080 00 00 00 00 00 00 00 00 00 00 00 00 00 00 00 00
       0.0 0.0 0.0 0.0
000090 00 00 00 00 00 00 00 00 00 00 00 00 00 00 00 00
       0.0 0.0 0.0 0.0
0000a0 00 00 00 00 00 00 00 00 00 00 00 00 00 00 00 00
       0.0 0.0 0.0 0.0
0000b0 00 00 00 00 00 00 00 00 00 00 00 00 00 00 00 00
       0.0 0.0 0.0 0.0
0000c0 00 00 00 00 00 00 00 00 00 00 00 00 00 00 00 00
       0.0 0.0 0.0 0.0
0000d0 00 00 00 00 00 00 00 00 00 00 00 00 00 00 00 00
       0.0 0.0 0.0 0.0
0000e0 00 00 00 00 00 00 00 00 00 00 00 00 00 00 00 00
       0.0 0.0 0.0 0.0
0000f0 00 00 00 00 00 00 00 00 00 00 00 00 00 00 00 00
       0.0 0.0 0.0 0.0

weight f4 [32, 64]
000000 f2 35 9f 3e df e6 4a bf 9c a1 0e 3e 67 8f 41 3d
       0.31095845 -0.7925853 0.13928837 0.0472559
000010 2d e1 89 be 91 9e 50 bf 3e 70 08 bf 07 58 8a be
       -0.26929608 -0.81491953 -0.5329627 -0.27020285
000020 2c 2f c3 be e1 06 58 3e c5 95 49 3d a1 f2 1f be
       -0.38121927 0.21096374 0.049215097 -0.156199
000030 1a 95 39 3f d8 4a 02 bf 41 a0 12 bd 05 6c 45 3e
       0.72493136 -0.5089545 -0.03579736 0.19279487
000040 40 62 d7 bc 97 e9 48 be 01 f8 7f be 18 f7 14 3f
       -0.026291966 -0.19620357 -0.2499695 0.58189535
000050 6a 1f 2c bf 75 01 38 3f ee 64 57 3f d6 8d 08 bf
       -0.67235434 0.71877223 0.8413838 -0.53341424
000060 39 16 84 3e 5a 39 3d bf 5e 16 c9 bd eb 7a 1f 3e
       0.25798205 -0.73915637 -0.09818719 0.15574233
000070 5b 6a 3f bf 8c 38 77 3f e9 d6 d6 3d ff 11 66 be
       -0.7477166 0.9657066 0.104902096 -0.22467802
000080 9c 9f e4 3e b1 ca 15 3f 5d cc 0b bc 58 90 b1 be
       0.44653022 0.5851241 -0.008532611 -0.34680438
000090 fd 3e bf be 29 ea 14 3f bc 3d a9 bf bc ec 6a 3e
       -0.37352744 0.581698 -1.3221965 0.2294187
0000a0 af 99 44 3e c5 1c b7 3f cb f2 75 bd 31 bd b5 3c
       0.1919925 1.4305655 -0.060046 0.02218494
0000b0 f0 10 47 3d a7 1d f3 3d b7 70 20 bd 40 94 46 3d
       0.048600137 0.1187089 -0.039169993 0.048481226
0000c0 18 2f 4e be 29 a8 b3 bd 80 e4 11 3f f6 fe 75 3d
       -0.20135152 -0.087723084 0.5698929 0.060057603
0000d0 60 28 9c be 1a af 1c be 85 1f 65 bf 23 9c 60 bd
       -0.30499554 -0.15301171 -0.8950122 -0.054836404
0000e0 3f c9 34 3f 98 1c 9f 3f cc a8 a1 3e 8a e3 cd bd
       0.7061958 1.2430601 0.31574094 -0.10053165
0000f0 22 be 20 3c 91 ca 01 be 8e ab 26 3f 09 ed 1d bf
       0.009810956 -0.12674929 0.6510552 -0.6168981
000100 a6 59 81 be 1f 55 08 3f 25 ea 45 3f 25 1a 69 3f
       -0.2526371 0.53254884 0.773104 0.9105552
000110 54 58 02 be 48 36 cb be 94 c8 7a bf a0 a5 3b 3f
       -0.12729007 -0.3968985 -0.9796231 0.732996
000120 9a b1 e0 be 83 59 6f be 7d 04 0c bf b4 96 c3 be
       -0.438855 -0.2337399 -0.5469435 -0.38200915
000130 09 ef af 3e e9 13 b3 bd 5c c8 86 3e bb 49 97 3d
       0.34362057 -0.08744032 0.26324737 0.0738711
000140 87 f1 1e 3e c3 3c f0 3e 94 53 c6 bc 2c e5 26 3f
       0.15521823 0.46921358 -0.024209775 0.6519344
000150 5a 7f f0 bd 86 d7 83 3f d5 6a 2b 3b 29 73 eb be
       -0.117430404 1.0300148 0.0026156206 -0.45986298
000160 59 ca 75 bd 51 9d 7b 3d 53 f8 81 be 2a 0d 1e bf
       -0.060007427 0.061429325 -0.2538477 -0.61738837
000170 d3 03 7e 3d 22 01 90 3e 4b 70 1c bf c3 df 10 3f
       0.062015366 0.28125864 -0.61108845 0.56591433
000180 36 ff ed 3e eb 71 2d be df 96 34 3e 84 c3 18 bf
       0.46483773 -0.16937988 0.17635678 -0.59673333
000190 60 8a 3c bd ee 31 53 bf 6c c1 f8 bf da 0f e6 3c
       -0.046030402 -0.8249806 -1.9434028 0.02808373
0001a0 d0 c0 c9 bd c7 60 83 3f ae fd 3f 3f f1 8c 91 bf
       -0.09851229 1.0263909 0.7499646 -1.1371137
0001b0 66 a5 3c be 5c 62 34 3e e4 85 77 3c cc 8a a6 bd
       -0.1842247 0.17615646 0.015107606 -0.08131942
0001c0 9e 09 02 3e 30 92 c8 3e 0d db 83 bc 8c ea d3 be
       0.12698981 0.39174032 -0.016095662 -0.41389883
0001d0 e1 61 cd be 4a ec 3d bf fa bf 06 3f bb b7 08 bf
       -0.40113738 -0.74188673 0.52636683 -0.5340535
0001e0 b3 9f 13 3f 1e 28 9c 3d 62 d3 16 3e 46 a1 75 3e
       0.57665557 0.07624839 0.14729074 0.23987302
0001f0 9f 44 9f 3d 8f f2 06 3f 69 18 d7 bc a1 c2 45 bf
       0.0777676 0.52713865 -0.026256757 -0.77250105
000200 e7 a6 47 bf 3e 00 93 bf bc a2 18 3f a1 ed b2 bf
       -0.7798905 -1.1484449 0.5962331 -1.3978769
000210 2a b7 32 3e 12 2f af 3d 70 9c 89 3e 71 dc f3 3e
       0.17452684 0.085539 0.26877165 0.4762912
000220 cb 2c 6d 3d d7 31 23 3f a7 b7 04 3f ba c9 80 3f
       0.057904046 0.63747925 0.5184273 1.0061562
000230 c5 81 c3 3e b3 61 28 3e ad 20 ea 3d 52 83 ae bf
       0.38184944 0.1644352 0.11432014 -1.3633826
000240 74 2d f2 be e6 0f 37 be 63 d7 73 3d d0 3f c9 be
       -0.47300303 -0.17877159 0.05953158 -0.39306498
000250 46 d8 6c bf 56 27 b4 3c 96 f2 11 3f ab 04 fb 3e
       -0.9251751 0.021991413 0.5701078 0.49027
000260 14 6b 25 3f d6 5f 34 bf c6 5d 91 3f 4d e7 ef 3e
       0.64616513 -0.70458734 1.1356742 0.46856156
000270 41 4e a3 be 7d 23 33 be aa 72 15 3f 65 2a 44 bd
       -0.3189564 -0.17494006 0.5837809 -0.047891993
000280 09 96 5a be 46 37 18 bf 2a 82 19 3f c6 ed 59 bf
       -0.21346296 -0.5945934 0.5996424 -0.8512844
000290 84 ab 18 be 82 cf f5 be 94 bd 92 3e 55 bd e0 be
       -0.14909178 -0.48009878 0.28660262 -0.4389445
0002a0 cc 97 c3 3d d7 0d 03 bf ed 95 14 bf 06 26 92 3e
       0.09550437 -0.5119299 -0.5804127 0.28544635
0002b0 77 8e b7 bd 23 57 6a 3f 46 59 da 3d 25 fb 24 bf
       -0.0896272 0.9153921 0.10661559 -0.64445716
0002c0 34 ec 3b bd 4c 43 3c be b1 ea bc 3d 59 8f af bd
       -0.045879558 -0.18385047 0.09224451 -0.08572263
0002d0 d9 23 97 3f 1e ff 15 3f 42 69 39 be 23 ea 18 bd
       1.1807815 0.585924 -0.18106559 -0.037332665
0002e0 a1 6c ed 3e 7b e6 05 bd d2 b2 81 3f dd 0a d4 ba
       0.4637194 -0.032690506 1.0132697 -0.0016177554
0002f0 91 b7 8f 3e 82 25 23 bf 13 78 ff 3e 75 41 84 bf
       0.28069738 -0.6372911 0.49896297 -1.0332476
000300 de 8f b9 bd 2c 46 92 bc ff 61 49 3e ab 28 ef 3e
       -0.090606436 -0.017855726 0.19666289 0.46710715
000310 bc 61 38 be b1 66 5a 3e 12 7a a8 bd d0 be 97 3e
       -0.18006033 0.21328236 -0.08226408 0.29637766
000320 8d 9c f4 be 53 b2 12 3e e9 34 16 be ef 79 92 be
       -0.4777569 0.14325838 -0.14668621 -0.28608653
000330 fe 64 02 3f c0 cd 35 3d 25 d9 96 be 8e e0 0f bf
       0.5093535 0.04438567 -0.29462543 -0.5620202
000340 17 63 b4 3e 0e 9b 08 bf 8e c5 54 3c db 5d be 3e
       0.3523185 -0.53361595 0.012986554 0.3718098
000350 b4 61 c6 3e 63 3c 25 3f 91 de 4b bf 79 3b 99 3d
       0.38746417 0.6454527 -0.79636484 0.07482047
000360 1e c0 8b 3e ec 25 92 3f ae 03 f0 bc 2d ad 99 be
       0.2729501 1.1417823 -0.02929863 -0.30014935
000370 04 be 02 3f bc 14 e0 3d 8b ad 64 3e 3a 44 cf 3e
       0.5107119 0.10941455 0.22331826 0.4048174
000380 69 fd 4e 3e 96 a5 42 3e e7 f5 d3 3e 78 04 3b 3f
       0.20213856 0.19008479 0.41398546 0.73053694
000390 65 d1 e0 bd c5 0f 35 bf 65 0a 9c bd 5c 89 aa 3d
       -0.10977439 -0.7072719 -0.0761917 0.083269805
0003a0 d9 fc 48 3e b4 3d 10 3f b3 54 1b 3e 8a 6f 99 be
       0.19627704 0.5634415 0.15169029 -0.2996791
0003b0 cb bd bc be a7 0f 37 be 2a 7a 33 3e 19 d7 7f bc
       -0.3686355 -0.17877065 0.1752707 -0.015615248
0003c0 1a 99 6d 3d 46 53 33 bf 2f 86 19 be b3 39 f4 be
       0.058007337 -0.7004894 -0.14992593 -0.4770027
0003d0 62 e8 4b 3e e4 c3 35 bf 2a fb 01 3f 54 0c 3f 3e
       0.19912866 -0.7100203 0.5077387 0.18657047
0003e0 4e 4a 2b be 85 43 39 be 65 c4 28 be fd 51 09 be
       -0.16727564 -0.18092163 -0.16481169 -0.13410182
0003f0 a8 f0 44 3e 5e 2f 84 be 2c 28 3c be da 2f 0b 3f
       0.19232428 -0.25817388 -0.183747 0.5436989

bias f4 [32]
000000 b9 97 39 be fb ce ba be a8 c2 83 bc ef 2d f4 3d
       -0.18124284 -0.3648604 -0.01608403 0.11922824
000010 0e 58 20 be f8 4b 99 bd b9 1e 84 bd 9c a9 d6 bc
       -0.1565859 -0.07485193 -0.064511724 -0.026203923
000020 d3 6e 50 be 35 43 32 bd d8 a9 a2 be d1 8b de 3d
       -0.20354776 -0.043521125 -0.31770205 0.108665116
000030 a0 8b f5 bd 8f 22 59 be 55 af 8f bc bf f4 9f bd
       -0.11989522 -0.2120459 -0.01753966 -0.078103535
000040 f6 29 0e be 1e 84 93 bc f7 e1 29 be ff 29 48 be
       -0.13883194 -0.018007334 -0.16590105 -0.1954727
000050 25 db 50 be fd 92 93 be 76 e6 0d be 46 e3 6c be
       -0.20396097 -0.2882308 -0.13857445 -0.23133573
000060 34 ab 19 be 7e df 3b bc ae 28 69 bd 73 3b 49 be
       -0.15006715 -0.011466859 -0.05692356 -0.19651584
000070 38 93 fe bd 6f 84 25 3e 20 23 cc bd 85 b0 12 bd
       -0.124304235 0.161638 -0.09967637 -0.035812873

weight f4 [12, 32]
000000 ee de 3b 3e 8e 02 78 be c9 64 94 3d 1b d2 85 bc
       0.1834676 -0.24219725 0.07245786 -0.016335538
000010 55 42 ea 3d 63 bf 62 3e 36 90 9c be 33 a0 48 3e
       0.11438433 0.2214332 -0.30578774 0.19592361
000020 68 f8 81 be a0 f7 01 3e 29 54 50 bd 4c 8d dc be
       -0.2538483 0.12692118 -0.05086151 -0.4307655
000030 f5 fc 97 bd 43 d9 34 3e 02 e0 d0 be 1e e1 23 be
       -0.074212946 0.17661004 -0.40795904 -0.16003844
000040 19 ce 9d bd c9 93 13 bf 41 91 a6 3e 26 da af be
       -0.07705326 -0.5764738 0.32532695 -0.34346122
000050 42 db 4e be 5b 7f 2b 3e 92 7d 42 3e 9b ee 4e 3d
       -0.20200828 0.16747801 0.18993214 0.05052052
000060 0c da 52 be c2 cb 1a 3e 20 86 db bd 3f f5 cc 3e
       -0.20590991 0.1511679 -0.10718942 0.40030858
000070 65 9f 17 be 8e 4f 77 be 44 6d 44 3e 2e 9b 84 3e
       -0.14806898 -0.24151441 0.19182307 0.25899643
000080 1b 00 40 be 0b 6c 22 be 07 be b5 bd d4 fa 57 be
       -0.1875004 -0.15861528 -0.088741355 -0.21091777
000090 58 d9 a5 3e 95 3a c5 bc bb 62 77 3e c0 04 a8 3d
       0.32392383 -0.024075786 0.24158756 0.08204031
0000a0 2e 17 b6 3d 3f 0d 86 be a0 af 33 3c 65 c4 96 bd
       0.0889114 -0.2618198 0.010967165 -0.07361678
0000b0 6f c9 59 bc 02 de 9f be 0c b4 4b 3d 6f 17 5a be
       -0.013292654 -0.31224066 0.049732253 -0.21298002
0000c0 6e 20 b5 3e 60 c4 2f bd 37 b9 aa 3c cb 5c 43 be
       0.35376304 -0.042911887 0.02084027 -0.19078366
0000d0 92 f6 bf be 56 e8 25 bd 8b 28 12 3f 4c 6f b9 be
       -0.37492806 -0.040504776 0.57093114 -0.36217725
0000e0 ba 5e db 3c 2b 4c fc 3d 91 7d 8c 3d 6e 4f bc bd
       0.026778568 0.123192154 0.068598874 -0.091948375
0000f0 a4 da df be 99 20 9a 3e 55 11 5c 3e 84 a4 19 be
       -0.43721497 0.30102995 0.21490987 -0.15004164
000100 69 0a a0 3d b3 0b 48 3d 65 3d b9 3c 51 81 e1 3d
       0.078144856 0.048839282 0.022612283 0.11010993
000110 78 f9 04 3e 5e 51 df bd e4 a6 8f bd 95 44 39 be
       0.1298579 -0.109041914 -0.07014254 -0.18092568
000120 98 21 5a 3e e9 b6 05 3e af 7d 3a 3e 65 77 f1 bc
       0.21301877 0.13058056 0.18212007 -0.029475877
000130 10 3b 4a be 91 ea 75 3d ec f5 22 3e 55 8b 55 be
       -0.19749093 0.060038153 0.15914124 -0.20853932
000140 9b bb 54 be 0e 80 aa be 0d 15 92 be a6 7f 93 3e
       -0.20774691 -0.33300823 -0.28531685 0.28808326
000150 47 f2 af 3e 5e 76 91 bb 70 18 50 3e 66 89 59 3d
       0.3436453 -0.0044391593 0.20321822 0.05310955
000160 12 03 d3 bd 1a 57 fe bd b0 b1 98 bd 0e 5f 99 bd
       -0.1030332 -0.12418957 -0.07455766 -0.07488833
000170 05 8e b7 3d 72 4d 9d bc ba ba 33 3d 89 b3 05 3e
       0.08962635 -0.019201968 0.04387925 0.13056768
000180 5b 1d 9a 3c 52 58 4d 3e d0 c2 39 3d 3f 08 cb bc
       0.018812826 0.20053223 0.045351803 -0.024784205
000190 09 61 0c be 1e 39 17 3e 97 12 a5 bd 15 a1 18 3f
       -0.13708891 0.14767882 -0.08060186 0.5962079
0001a0 da 4b fb 3d 9c 02 81 bd e7 04 d6 3e d1 ec aa bd
       0.12270327 -0.06299326 0.41800615 -0.083459504
0001b0 3a 53 d8 3d ef fe 59 be ca b4 1c 3e 88 3c 52 bd
       0.10562749 -0.21288656 0.1530334 -0.05132726
0001c0 6e 6e c0 be a7 eb bd 3c 9a fb f5 3e 72 65 de 3e
       -0.3758425 0.023183657 0.4804352 0.43436772
0001d0 c4 29 c1 bd ee d3 18 bd db 82 4d bd db fd fc 3d
       -0.09431794 -0.037311487 -0.05017362 0.123531066
0001e0 28 fd 08 be 89 1f 6a 3e ce 2f 7d be b4 f1 0c 3d
       -0.13377821 0.22863592 -0.24725267 0.034410194
0001f0 f7 26 ad be 52 60 58 3e e3 a8 b8 bd 93 f6 4e be
       -0.3381879 0.21130493 -0.090165876 -0.20211248
000200 bc b3 97 bd a0 b1 ec bd e3 a2 66 be 98 79 a0 3e
       -0.074073285 -0.11557317 -0.22523074 0.3134277
000210 44 af 59 3e 2e 70 b2 be e2 90 97 3d 78 1b bc 3e
       0.21258265 -0.3485121 0.07400681 0.36739707
000220 30 c3 64 be f2 55 df be f3 0a 70 be fc 1e e1 bd
       -0.22340083 -0.4362026 -0.23441677 -0.10992238
000230 5e b7 61 bf f0 ab 87 3e 88 d1 38 3d 8f fb 3a 3e
       -0.8817042 0.26498365 0.0451217 0.18260024
000240 9f c0 d6 bd d8 36 6f 3e 04 67 9c be 2d ac 01 bc
       -0.10485958 0.23360765 -0.30547345 -0.007914585
000250 33 52 07 bb dc 8b f9 bd 0b 6f 86 3e 13 75 32 bd
       -0.002064836 -0.12184879 0.26256594 -0.043568682
000260 17 86 13 bf d8 03 ba 3f be 5e 57 3d c3 88 95 3e
       -0.5762648 1.4532423 0.052580588 0.29205903
000270 f0 b4 f4 3d 92 ec b9 3e f3 97 0a 3d 65 f1 d8 bd
       0.119485736 0.363133 0.033836316 -0.10592917
000280 03 67 a6 be 7b 25 fa 3d 7f fb 84 bf 7d af 43 3e
       -0.32500467 0.1221418 -1.038925 0.19109912
000290 90 09 61 3e b4 2f cf 3c 02 aa 59 3e b5 40 a8 be
       0.21976304 0.025291301 0.21256259 -0.32861868
0002a0 3c 7d a7 be d9 38 99 bd 14 ec 3c 3d f8 48 51 be
       -0.32712734 -0.07481546 0.04612358 -0.20437992
0002b0 94 44 90 3e ff 6e 64 3e 73 a1 a8 bb 9e 61 e0 3d
       0.2817732 0.22307967 -0.0051461994 0.10956119
0002c0 07 2c 5e 3d 52 9a 3d be ff 1f 5f 3e d6 01 2b 3e
       0.054241206 -0.185159 0.2178955 0.16699919
0002d0 34 a9 05 be 5e c8 1e be 12 7a 06 3d bb 3e 66 be
       -0.13052827 -0.15506122 0.03283126 -0.22484867
0002e0 d5 b1 53 be f9 24 54 bd 5e fe c6 bd f2 93 fa 3d
       -0.20673306 -0.051793072 -0.097164854 0.122352496
0002f0 9b d2 82 3d 47 b6 4d 3e 13 8f a7 3d cc d0 0f 3e
       0.06387826 0.20089065 0.08181586 0.14044493
000300 e4 f3 0c bd 66 81 14 3f 9a 3c 01 be 69 1f 8f 3d
       -0.03441228 0.58009946 -0.12620774 0.06988413
000310 88 b9 15 bf e6 2d 0e 3c 91 0c 59 3d 2b 08 5c be
       -0.58486223 0.008677935 0.0529905 -0.21487491
000320 2c b0 74 3e 4e b8 e5 3d d5 0b a2 3c f1 e6 06 bf
       0.23895329 0.11216794 0.019781033 -0.5269614
000330 21 31 dd bd bb 18 9a 3d 3b 30 c3 3e 84 6c e3 bd
       -0.10800386 0.07524248 0.38122734 -0.11104682
000340 6e 89 1d bd e4 6d a3 3d 74 ab 0e 3e 98 91 08 bf
       -0.03846114 0.07979944 0.13932592 -0.5334716
000350 5e 8c a4 3e 4d 2c d4 3c 77 3c c7 3d bd 76 a0 3d
       0.32138342 0.02590003 0.0972833 0.078351475
000360 d9 a8 04 3d 61 1c ea ba 33 79 2d be fc 6e 07 bf
       0.03238759 -0.0017861241 -0.16940765 -0.52903724
000370 b6 8b af bd f2 11 eb bc 4b 30 80 3d 64 19 8a be
       -0.085715696 -0.02869508 0.06259211 -0.26972497
000380 61 24 29 3e bc d0 60 bd 35 55 7a bd a8 e9 be be
       0.16517784 -0.054886565 -0.061116416 -0.3728764
000390 aa 72 8e 3e e9 62 b8 be f1 97 4d 3e a0 7c 37 be
       0.27821857 -0.36012962 0.20077492 -0.17918634
0003a0 2e 96 c0 bc b7 a9 eb 3d c3 f5 50 3e 4c 84 e2 be
       -0.023509111 0.1150698 0.2040625 -0.4424156
0003b0 6a 1c ea bd e5 f7 88 3e 62 c0 34 be b1 95 69 be
       -0.11431201 0.2675163 -0.17651513 -0.22811009
0003c0 19 e9 14 be 74 3a ee 3b 71 e3 e7 3b 55 11 9d 3e
       -0.14542045 0.0072701517 0.0070766737 0.30677286
0003d0 8b 56 34 3e ca d4 f9 bd 8f 15 12 be de 0e f4 3c
       0.17611139 -0.121987894 -0.14266036 0.029792245
0003e0 ca ac af 3e 17 77 80 3e e7 30 a9 be eb 6d 02 3e
       0.34311515 0.25090858 -0.33045122 0.12737243
0003f0 db 7b 14 3e 88 ec 5f be 4b c8 df bd 43 0e f1 be
       0.14500372 -0.21867573 -0.10926875 -0.47081193

bias f4 [12]
000000 87 bb 87 be ec 30 9b 3e 8d 41 a7 bd 52 ba 14 3f
       -0.2651026 0.30310762 -0.081668 0.580968
000010 63 63 bb 3e 1c 71 c0 3d a6 1b 15 bf 9a b9 80 be
       0.36599264 0.09396574 -0.58245313 -0.25141603
000020 b2 55 29 3d e9 b5 02 3f 5c 2a 27 3e 8b 85 e5 bc
       0.04134149 0.5105882 0.16324753 -0.02801778

weight_ih_l0 f4 [256, 47]
000000 86 94 bb 3e 1e 7c a9 bd b5 6f 7a 3d 74 81 eb 3d
       0.36636752 -0.082756266 0.06114169 0.114993006
000010 af a7 2c 3f 87 d4 25 3f d5 c6 8b bc 1e 55 a4 bc
       0.67443365 0.64777416 -0.017062584 -0.020060118
000020 a8 6d 92 bf 07 bd 56 bd 88 21 b2 bd 1f e3 4a bf
       -1.1439714 -0.052426364 -0.08697802 -0.7925281
000030 ce 50 2d be 73 27 99 be 29 90 01 be 61 8e 0b 3e
       -0.16925356 -0.2991291 -0.12652649 0.13628532
000040 cd b6 59 bf 31 19 21 3e 42 7a 34 be 50 c3 32 be
       -0.85044557 0.15732266 -0.17624763 -0.17457318
000050 7f b0 1b be 52 d1 03 bf 42 6b bf 3d 76 05 2f be
       -0.15204047 -0.5149127 0.0934663 -0.17091927
000060 e0 d9 c9 3e 65 75 b1 be 8f 6b b3 3e af c6 14 3e
       0.39424038 -0.34659877 0.35042998 0.14528917
000070 c1 cd f3 3d 85 6f 98 bb 75 76 e2 be cb b4 f2 bd
       0.11904479 -0.004651966 -0.44231 -0.1185089
000080 75 76 94 3e bf 04 a1 3c 0a ca 2d 3e ba 2d d8 3c
       0.28996626 0.019655583 0.16971603 0.026388992
000090 3a 6f c7 bd 56 f2 02 3d 1d 10 7d 3d 2e c6 73 3d
       -0.09738012 0.03196939 0.061782945 0.05951517
0000a0 0e 01 d3 3d d2 61 51 3e 55 84 0d 3d 86 14 e7 3c
       0.103029355 0.20447472 0.03455003 0.028208029
0000b0 ba 4f 41 bd b4 9e 26 be 41 a9 a7 3e 03 e5 41 3e
       -0.047195174 -0.16271478 0.32746318 0.18935017
0000c0 1d 28 34 3f 20 78 55 3f d5 f3 81 3b cb 91 dd 3f
       0.7037371 0.8338642 0.0039658346 1.7310117
0000d0 e1 e8 4f 3f fa 3a d2 be a8 8d 22 3e 5f 49 19 bf
       0.8121472 -0.4106062 0.1587435 -0.5987758
0000e0 96 da 54 be ee 1f 9b bf 66 9c ba 3e fc 13 0b 3f
       -0.20786509 -1.2119119 0.36447448 0.5432737
0000f0 d9 d9 94 bf af c9 5e bf 84 00 cb be 85 e5 86 bf
       -1.1628982 -0.87026495 -0.3964883 -1.0538794
000100 2e 51 df 3f 5c 90 b5 3d fb 99 a1 3e f5 8e da 3e
       1.7446649 0.08865425 0.3156279 0.42687193
000110 78 2d a1 be 57 14 6f bf c7 bb 94 3f 71 96 03 bf
       -0.31480002 -0.9339041 1.1619805 -0.5140143
000120 9f ba 6e bf d9 d5 5e be e5 a3 82 3f 40 73 a8 3e
       -0.9325351 -0.21761264 1.0206267 0.3290043
000130 b7 69 0a 3f b8 2a 11 3e d3 43 00 3f d5 5b 88 be
       0.5406756 0.14176452 0.5010349 -0.26632562
000140 73 6e 4c 3e 85 da 45 3c 3c 31 d3 bc 36 bf 09 bf
       0.19964008 0.012076025 -0.025780313 -0.5380739
000150 c6 2b a6 bb 8d 19 b0 bc 5e d3 b3 3d c5 f3 8d 3d
       -0.005071136 -0.021496559 0.087805495 0.06931261
000160 d3 9e db bd 7f e5 51 3e e5 2b 40 bd 13 1b 79 bd
       -0.10723653 0.20497702 -0.04691686 -0.060816836
000170 db 36 b2 bc 9a 3f fa 3d 34 d3 28 40 0f c1 72 3f
       -0.021754673 0.12219162 2.6378908 0.94825834
000180 94 64 8b bf 47 59 d5 3f 3a 84 4e c0 ea 52 a8 3e
       -1.0890069 1.666787 -3.2268205 0.32875758
000190 2e c0 b3 be cb b3 89 3d 5b 59 9a 3f 78 16 5b 3f
       -0.3510756 0.06723746 1.2058519 0.8558116
0001a0 01 4e 83 3e 1e 56 08 3f 93 87 7f b9 c4 fd be bb
       0.2564545 0.53256404 -0.000243692 -0.005828591
0001b0 84 fe 89 bf d4 6a 4f 3f ea cc 4f 40 03 24 f8 bf
       -1.0780797 0.8102238 3.246882 -1.938599
0001c0 69 70 48 3f ac 9a dd 3e d8 9d 2c be f8 e2 e9 be
       0.78296524 0.43282068 -0.16857088 -0.45680976
0001d0 b5 26 b6 be b9 95 a8 be cc c5 ae 3e e3 6c 4f be
       -0.35576406 -0.3292673 0.34135282 -0.2025638
0001e0 5f 14 1d bd 20 fe 90 3e a9 41 43 3f 98 3d f1 be
       -0.038349506 0.28318882 0.76272064 -0.47117305
0001f0 27 48 f8 3e d4 9f 98 3d 92 95 d2 be aa b4 58 3d
       0.48492548 0.0745236 -0.41129738 0.05290667
000200 fc de 7c be 97 89 cd 3e 47 34 0d 3e f5 1a 5d 3b
       -0.24694437 0.40144035 0.13789473 0.0033737991
000210 6e b0 8e be b7 b9 98 3c b5 2f 3e 3d 3d de b9 bd
       -0.2786898 0.018643243 0.046432216 -0.09075592
000220 32 bd 1f bd 97 32 90 bc 38 fe 2f 3e 5c 29 9c bf
       -0.03899879 -0.017602248 0.1718682 -1.2200122
000230 0b 21 74 bf 69 43 3b be 6d 36 83 be 46 11 b5 3e
       -0.9536292 -0.18287434 -0.2562746 0.3536474
000240 7c f6 89 bf 68 38 73 bf cb e3 92 3e 65 c5 7e be
       -1.0778346 -0.95007944 0.28689417 -0.24879988
000250 97 10 86 bf ac 5f 29 be 48 fa 4c bf e5 0b c0 c0
       -1.0473813 -0.16540402 -0.800694 -6.001452
000260 99 1b df 3e 7b 11 4c 3f cf ff 3e bf 38 05 34 bf
       0.43575743 0.79714173 -0.7460908 -0.70320463
000270 db 37 15 40 75 88 95 bf a3 9b 64 40 f7 54 95 3e
       2.3315341 -1.1682268 3.5719993 0.29166386
000280 98 b2 96 3e 52 bc 0b bf ba 46 06 bf 08 14 cf 3e
       0.2943313 -0.5458423 -0.5245167 0.4044497
000290 1d 4c 49 3f 61 8e 19 be 6c b7 b6 3e 54 85 59 bf
       0.78631765 -0.1499572 0.35686815 -0.8496907
0002a0 09 da d5 bf 97 d8 4c 3d 71 ae cb be f8 8c 71 bf
       -1.6707164 0.050011244 -0.39781526 -0.94355726
0002b0 b0 e5 d0 3e 73 db d9 3e e9 09 c5 bd bc ad a3 3c
       0.40800238 0.4255024 -0.09621031 0.019980304
0002c0 42 96 4f 3d 62 e3 e2 3e eb f0 a4 3b f9 1a 1c be
       0.050680406 0.44314104 0.0050336025 -0.15244664
0002d0 d0 ef 53 be bf 9a 9d be 10 fe b0 3c c5 76 8a bc
       -0.2069695 -0.30782124 0.021605521 -0.016902337
0002e0 5f 9f 2d bd 7c 79 be 3e 03 5b f0 b9 66 f6 c4 bd
       -0.042388316 0.3720206 -0.00045844176 -0.09617309
0002f0 6b 01 ab bf d6 06 04 bf da 02 3e 3e dc 82 88 bd
       -1.3359808 -0.5157293 0.18555775 -0.066655844
000300 24 ed b4 3f 3a 2d 20 3f 97 47 20 3d 81 2b cc bd
       1.413487 0.6256901 0.039130773 -0.09969235
000310 59 6e 30 bd 8e 5a bf be c0 91 d8 bd da a3 12 3e
       -0.043073986 -0.37373775 -0.105746746 0.14320317
000320 ab bb c0 3f fc 09 58 bf 6c aa f9 be 59 80 8d 3e
       1.5057272 -0.84390235 -0.48762834 0.27636984
000330 68 c5 f2 be 2f 58 c9 3e 4f 43 33 3f a8 e6 da bd
       -0.47416234 0.3932509 0.7002458 -0.106885254
000340 8f 1f 0b 3e 16 35 fe be 13 98 33 bf 4d f0 0e be
       0.13586257 -0.49649876 -0.7015392 -0.13958855
000350 54 51 88 3f a9 f7 65 3d 8d 9a ce be ac 56 0d bf
       1.0649819 0.05614439 -0.40352288 -0.55210376
000360 8f 25 a9 be 77 66 78 3d 98 13 64 3f d4 3f 2c 3d
       -0.33036467 0.060644593 0.890924 0.04205306
000370 df c2 19 3e 89 54 5e 3e e2 2a dd 3d 52 a0 a6 3d
       0.15015744 0.21711935 0.10799195 0.081360474
000380 fa 02 d0 be 53 b9 41 3c e6 8d 17 3e 20 48 4e 3d
       -0.4062727 0.01182397 0.14800224 0.050361753
000390 6a 18 90 3b e9 57 9c 3d 7c 11 3f be 4b b0 c5 b9
       0.0043974416 0.07633955 -0.18659014 -0.00037706117
0003a0 45 9f 47 3b 8c fa f7 3d 99 7b bf bd 1a dd 0c 3e
       0.0030459922 0.12108335 -0.09349746 0.13756219
0003b0 99 88 1a 40 29 69 c0 3f a5 35 03 40 d9 50 67 3f
       2.4145873 1.5032092 2.0501492 0.9035774
0003c0 2d 09 b9 bc 7c e5 2d be 20 8a a0 be aa 7b 08 c0
       -0.022587383 -0.16982073 -0.3135538 -2.1325479
0003d0 15 ce b6 3e 91 58 50 40 9c a5 26 c0 27 5c b9 3e
       0.35704103 3.2554057 -2.603858 0.3620312
0003e0 5c bf 96 3e b4 ab 55 bc 5c f6 60 be 85 b8 0b 40
       0.2944287 -0.0130414255 -0.21968979 2.1831372
0003f0 cf 10 38 40 dc 60 93 3f 59 af 8c bf 8d 56 c5 3e
       2.876026 1.1513934 -1.0991012 0.38542596

weight_hh_l0 f4 [256, 64]
000000 3b 61 87 be ce 26 06 3e 61 c7 4b 3d 86 0e f5 3c
       -0.26441368 0.1310074 0.04975069 0.029914152
000010 a8 9b cd bd 46 20 2a 3f 39 fc af be 49 28 a4 bc
       -0.10039455 0.66455495 -0.34372118 -0.02003874
000020 b9 8a 94 3e 35 43 5b 3d 31 58 bb be 8c f8 6c 3e
       0.29012087 0.05353089 -0.36590722 0.23141688
000030 af 00 9c bd ea bb 63 bf 30 e7 73 bd f1 c6 37 3e
       -0.07617318 -0.8895861 -0.05954665 0.17946984
000040 5e b5 27 3e 1d 2a 3c 3f a3 6a 06 be 2c 14 39 bf
       0.1637778 0.7350176 -0.13126616 -0.72296405
000050 10 1c 41 bc a6 85 85 3e 91 8a 8d bd 4d 6e 25 3f
       -0.011786476 0.26078528 -0.06911195 0.6462143
000060 3f fe 74 bd 9f 32 24 bf 02 a5 74 3c 35 e5 d5 3d
       -0.05981278 -0.6413974 0.014931919 0.104441084
000070 11 f6 cf 3e 8b db 0f 3f 8a 94 90 3f e8 67 94 bf
       0.4061742 0.5619437 1.129533 -1.159421
000080 08 ba 87 be 4e 33 c3 be c5 a3 2b 3e d7 20 3a bf
       -0.26509118 -0.3812508 0.16761692 -0.7270636
000090 05 9f a1 3e 2d 21 a5 bd 0b 05 c3 3e 74 0f 7b 3e
       0.31566635 -0.080629684 0.38089785 0.24517614
0000a0 ed 66 1a 3d ce 0e ee 3e 45 87 80 3e 64 da 0b bf
       0.037695814 0.4649567 0.25103202 -0.5463011
0000b0 fa d3 82 3d 78 d0 bc 3e 14 0a a4 3c 1e 38 95 3e
       0.063880876 0.368778 0.020024337 0.29144377
0000c0 d9 b6 4b be a0 2f 5c 3f 6a 09 35 bf 07 b8 8d be
       -0.1989397 0.8601017 -0.7071749 -0.27679464
0000d0 71 42 fa 3d 67 96 ed be 10 f3 27 be a7 65 8e bf
       0.12219704 -0.4640381 -0.16401315 -1.1124772
0000e0 47 fa 8a bd ed 42 08 3e c1 1f d3 bd 47 31 0a be
       -0.06786018 0.1330678 -0.10308791 -0.1349536
0000f0 ff 7a e1 3d fc ec 8e 3e a3 82 a4 be 2a b5 a4 be
       0.11009788 0.2791518 -0.32130918 -0.32169467
000100 0e cb b7 be c7 30 37 c0 6f 12 93 3d 56 f9 3c 3e
       -0.35897106 -2.8623521 0.0718125 0.18454489
000110 3a 7a f7 bd 38 5c 1a 3e d2 f8 62 bf 8d d6 05 3f
       -0.1208386 0.15074241 -0.8866092 0.52280504
000120 28 a9 73 3e 9b d9 de 3e df 0f 8b 3f 8e 21 2a 3f
       0.23794997 0.43525395 1.0864218 0.6645745
000130 8b 5c 62 bb 84 0e a0 3e 50 6c 09 bd 43 b1 dd 3e
       -0.0034540023 0.31261075 -0.03355056 0.43299302
000140 05 3c 3f 3f fe 65 14 be b7 f5 c5 bf d5 3a d8 3f
       0.7470096 -0.14492032 -1.5465611 1.6892954
000150 dc 1a e8 3e c4 2b c3 bf 74 ad c4 bc 24 49 1d 3e
       0.45332992 -1.5247731 -0.02400849 0.15359932
000160 69 8b c1 3e 1a e5 6a bf f8 68 37 3e 2e 3a 99 3e
       0.37801674 -0.9175583 0.17911136 0.299272
000170 60 12 38 3f d6 96 3d bf 3d f5 4a 3f 78 25 8d 3e
       0.7190304 -0.7405828 0.79280454 0.2756765
000180 56 fe 95 bf 7c 31 b2 3e a8 a8 15 3f 79 94 aa bd
       -1.1718242 0.3480338 0.58460474 -0.083291
000190 87 89 4a bf 9b be a7 be 63 c0 f5 bd a5 70 72 3f
       -0.791161 -0.32762608 -0.119995855 0.9470313
0001a0 80 3b 79 3d da ad 25 bf e0 dd 1c bf 78 b8 91 bf
       0.06084776 -0.647184 -0.61276054 -1.138442
0001b0 c4 7a 09 be e0 58 c1 3f a6 71 4b 3f a8 74 fa 3d
       -0.13425738 1.5105247 0.7947029 0.12229282
0001c0 f1 c7 d9 3e 03 cf 83 bf 47 61 0d be 4c f8 a5 be
       0.42535356 -1.029755 -0.1380664 -0.32415998
0001d0 3f eb f8 3e 0c 36 a1 3d 51 65 4b bf b9 6b c9 3d
       0.4861698 0.07871637 -0.7945147 0.098349996
0001e0 4a fd 3e c0 2c ab ac 3e 3d ca 50 3e 6e dc 87 3d
       -2.9842095 0.33724344 0.20389648 0.066338405
0001f0 7d b9 6d bf 0a 8e 0f 3f fd c0 d7 be 0f 2c 56 be
       -0.9286116 0.5607611 -0.42139426 -0.20915245
000200 dc c9 b7 3e 6e ce 18 bf b4 8b 36 3f 78 a9 93 3f
       0.35896194 -0.59689987 0.7130692 1.1536093
000210 42 cc 94 be c7 64 8a bf 85 e8 7b bf e9 80 55 3d
       -0.29062086 -1.0812005 -0.9840167 0.05212489
000220 35 9f 8e 3f 5b 15 cf be 53 9b 9b 3e 46 8a 12 3e
       1.1142336 -0.4044598 0.3039194 0.1431056
000230 f3 79 50 3f 2e e7 b9 be a1 a0 45 3f 04 d9 e5 3e
       0.8143608 -0.3630919 0.77198225 0.44892132
000240 83 6b 89 3e b1 15 57 3e 2a 84 b8 bf a8 86 bb 3f
       0.26839837 0.21004368 -1.4415333 1.4650469
000250 fb 96 0c 40 91 10 a9 bd 5a 16 14 3f 62 62 13 bf
       2.196715 -0.08255113 0.57846606 -0.57571995
000260 eb f6 ba bf 93 59 ae 3f e8 bf eb bd b6 08 72 bf
       -1.4606603 1.3621086 -0.115112126 -0.9454454
000270 77 da 72 ba 6e 83 3f bf 57 fa 93 3f 19 48 a1 bf
       -0.0009264121 -0.7480992 1.1560773 -1.2600127
000280 86 b8 75 3f c5 d1 ef 3e 3f d1 a9 3f 4d bc 2e be
       0.95984685 0.4683973 1.3266982 -0.17064019
000290 cc de ed 3d 38 93 67 be 73 30 a3 be 06 c5 7e 3e
       0.11614761 -0.22614753 -0.318729 0.24879846
0002a0 49 01 58 be 67 ef 8c bf 69 7c d5 3f ef c4 bc 3f
       -0.2109424 -1.101056 1.6678592 1.4747599
0002b0 fa 73 03 bf 78 6b 40 3f f9 17 e7 3d de 68 c9 3f
       -0.5134884 0.75163984 0.11283869 1.5735128
0002c0 8d f1 a4 3e 96 48 0a 40 c2 3d c0 3f 10 52 74 c0
       0.3221554 2.1606803 1.5018847 -3.8175087
0002d0 f8 d4 bd bf d0 08 8f 3e eb 8b 2e 3f 81 08 0c bf
       -1.4830618 0.2793641 0.6818225 -0.54700476
0002e0 e9 b6 54 be 9d db 9e 3e dd e0 3c 3f 49 81 27 3f
       -0.207729 0.31026927 0.73780614 0.6543165
0002f0 3f b1 48 bf 87 4e 70 3f 7d cb a9 3e 6b 4b 26 3f
       -0.78395456 0.93869823 0.33163062 0.6495883
000300 c8 38 85 bf 7e b3 91 3e dc 93 32 3e 61 49 3f 3c
       -1.0407953 0.28457254 0.17439216 0.01167521
000310 f8 5f 1a be ca 3c 79 bf 57 1e 94 be 83 89 ca 3e
       -0.15075672 -0.9735838 -0.28929397 0.39558038
000320 5c 11 0d be 8e 4f 57 bf 75 19 59 bf bd 1d ec be
       -0.13776153 -0.84105766 -0.8480447 -0.46116439
000330 08 41 d3 be 13 01 f7 be 87 3b cb be 9c e4 fc 3e
       -0.41260552 -0.48243007 -0.39693853 0.49393165
000340 91 66 8a 3d 6a 14 32 bf 83 18 9c 3d 14 5c fd 3e
       0.06757844 -0.695624 0.07621863 0.49484313
000350 d3 5a cf be 61 54 0e c0 ed fd 2f 3f 09 90 3a bf
       -0.4049898 -2.2239 0.68746835 -0.7287603
000360 d8 15 24 3f 9b 3f ae 3e b3 d0 e2 3d ec 6c 34 3f
       0.6409583 0.34032902 0.110749625 0.704787
000370 eb b4 45 bf 98 3e 95 bc 03 e1 4c 3e 25 2c 73 bf
       -0.77229184 -0.018218324 0.2000771 -0.94989234
000380 d3 f6 19 3f 4e 42 1a bf dd de 20 bf 84 20 f6 3c
       0.6014225 -0.6025742 -0.6284006 0.030044802
000390 3a 02 06 3f a4 16 3b be 71 e5 49 bc 2c 07 97 3d
       0.5234715 -0.18270355 -0.0123227695 0.07374415
0003a0 ae c4 91 3f 60 c7 f2 bd 03 5c 6d 3e db 84 66 bf
       1.1388147 -0.11854434 0.23179631 -0.9004647
0003b0 6c 72 d1 3e 4d 38 22 3f 16 a3 06 bf 87 98 9e bf
       0.4090761 0.6336716 -0.525926 -1.2390298
0003c0 20 b1 6e bd ea 6f 26 bf e9 ee c4 3f fc ad f7 3f
       -0.05827439 -0.6501452 1.538541 1.9349971
0003d0 23 2d 23 3e ab 93 c6 3e 39 46 3a 3f f3 b3 4e 3f
       0.15935187 0.38784537 0.727634 0.8074333
0003e0 f5 26 6b 3f 8f 8c 4c 3f 23 fc 93 be 8b 0d 44 3f
       0.9185632 0.79901975 -0.28903303 0.76583165
0003f0 48 b7 a9 bf 7c 29 17 bf ce 57 22 40 ac be 0f bf
       -1.3259058 -0.59047675 2.5366092 -0.5615032

bias_ih_l0 f4 [256]
000000 b2 5b 3b bf af 6b 69 bf 8b 49 81 be 37 1b 69 be
       -0.7318679 -0.9117994 -0.2525142 -0.22764288
000010 ef fe 32 bf 8e 3c 6c be 25 ae 20 bf cf 28 52 bf
       -0.6992025 -0.23069975 -0.62765723 -0.8209352
000020 df 5e c9 bd 19 9d aa be 7b 3a 54 bf 3c dd 19 bf
       -0.09832548 -0.3332298 -0.82901734 -0.601032
000030 09 8f b6 be e4 dc 81 be f2 d0 50 bf dd 2b b7 bd
       -0.35656002 -0.2536384 -0.81568825 -0.08943913
000040 1d 05 24 bd 51 c6 13 3e 15 dc 93 be 5e f8 05 bf
       -0.04004394 0.1443112 -0.28878847 -0.52332103
000050 70 a8 1b bf 34 02 fc be 7a 70 31 bf af f4 da be
       -0.6080389 -0.4922043 -0.6931225 -0.42764804
000060 d5 e6 e3 be e5 74 dc bd 79 ba fb 3c fa 2a 0f bf
       -0.44512048 -0.10764483 0.030728566 -0.5592495
000070 e8 9b f6 bd 42 a0 24 bf ba 61 fe be 30 f3 5f be
       -0.120414555 -0.64307034 -0.49683934 -0.21870112
000080 cd 83 57 3e 17 a2 14 bf 5a 5f 0b bf 23 6d 55 bf
       0.21046372 -0.5805983 -0.5444237 -0.83369654
000090 1e 87 4e bf 19 77 df be aa f5 fa bb ec 17 fc be
       -0.8067492 -0.43645552 -0.00765868 -0.49237
0000a0 7a 6b 5f be 6a 83 7c bf f2 a1 4c 3e aa 0d 01 bf
       -0.21818343 -0.9863802 0.19983652 -0.50411475
0000b0 9f 57 5f be 52 e2 84 be 4a 58 9a be eb 9f 1e bf
       -0.21810769 -0.2595392 -0.30145484 -0.61962765
0000c0 c4 39 61 bf 9a 3c 25 bf 58 33 6a be 0a f0 22 bf
       -0.8797877 -0.64545596 -0.22871149 -0.6364752
0000d0 f3 7e 9c be 90 db bc 3a 64 a2 aa be e5 52 39 bf
       -0.30565605 0.0014408696 -0.3332702 -0.7239211
0000e0 0f 05 12 bf 1a 5a b5 be d2 3e 0b bf 7c 30 fe be
       -0.5703897 -0.35420305 -0.5439273 -0.49646366
0000f0 80 d2 54 bf 93 f3 0f bf 17 e8 ad be 67 a1 08 bf
       -0.831337 -0.5623104 -0.33966133 -0.5337128
000100 8c 66 88 3f df 7c 44 3e 37 6a e4 be 63 99 bb bf
       1.0656295 0.1918826 -0.44612285 -1.4656185
000110 d8 6f 00 be 8c c8 1a bf 9b db 13 bf 97 0c 04 bf
       -0.12542665 -0.6046226 -0.57756966 -0.5158171
000120 18 4b 49 bf 5b e8 8e bf f1 06 73 bf 0a ea 94 be
       -0.7863021 -1.1164659 -0.94932467 -0.29084808
000130 88 d4 7f be a0 c7 8e bf 3d 42 bd 3e 4e 38 58 bf
       -0.24983418 -1.1154671 0.36964598 -0.84460914
000140 f6 2f c9 bd 28 9d 34 bf d8 05 70 bf 39 e7 97 bd
       -0.09823601 -0.705523 -0.93758917 -0.07417149
000150 95 11 e4 be 88 b7 76 bf ca 40 24 3e 89 29 ce be
       -0.44544664 -0.96373796 0.1604034 -0.40266064
000160 8e db c7 3e 31 7e 19 bf 84 5e b1 bf ef ba ab bd
       0.39034694 -0.5995818 -1.3856969 -0.08385264
000170 56 bd 4c be bd 5a 5b bf 8f f4 15 bf 4e e8 7e bf
       -0.19994101 -0.8568533 -0.5857629 -0.9957322
000180 af a4 79 bf 67 5a 4e 3e 45 f8 b9 3e d4 e3 34 3e
       -0.9751691 0.20151673 0.36322227 0.17665035
000190 8c f9 29 3f c1 cf 10 3d 4f f9 2b bf 7d 03 da 3e
       0.66396403 0.03535438 -0.6717729 0.42580786
0001a0 26 b5 ed be 82 80 6e 3e 37 8f 6e bf fd a4 b1 3e
       -0.46427268 0.2329121 -0.9318728 0.3469619
0001b0 78 7d 69 bf d5 41 37 bf f7 79 04 bf 92 f5 06 3f
       -0.91207075 -0.71584827 -0.51748604 0.5271846
0001c0 56 6a b3 3e eb 7c cc be bb d0 1d bf 7b c9 0b 3f
       0.35042065 -0.39939055 -0.6164662 0.5460431
0001d0 60 33 ac be ec ff c8 be 13 73 71 bf 73 84 c4 3e
       -0.33632946 -0.39257753 -0.94316214 0.383823
0001e0 6c 65 5e be 40 7e 3c bf 37 3d 30 bd e6 3e 36 bf
       -0.21718377 -0.7363014 -0.04302713 -0.71189725
0001f0 61 6e ec bc fe 03 ce be fe b3 fb be 2f a4 41 bf
       -0.028861227 -0.4023742 -0.4916076 -0.7564115
000200 91 13 88 bd 24 68 d5 bd 20 7d e6 3d df 30 21 be
       -0.06644357 -0.10420254 0.112543344 -0.15741299
000210 8e be c1 be 09 0e cf bd 20 64 50 be 42 a3 a7 3c
       -0.37840694 -0.10110099 -0.20350695 0.02046359
000220 b2 f9 66 3e b1 37 d1 3e 12 69 e4 bd ff d3 e0 3e
       0.22556189 0.40862802 -0.11152853 0.4391174
000230 64 03 1d bd 34 6e 81 be 6f 14 8d 3e e2 b1 bb 3e
       -0.03833331 -0.2527939 0.27554652 0.3665915
000240 ee 10 e8 be 44 bb 0f 3e 74 ee 2c bf bf b4 85 3d
       -0.45325416 0.1403628 -0.6755135 0.06528615
000250 c4 d4 02 be 31 43 9a 3d 49 83 56 3e 8f 4c 5e 3e
       -0.12776476 0.07532347 0.20948519 0.21708892
000260 48 bd be be 7f d5 94 bc 97 7a 59 bd ec ca f5 3d
       -0.37253785 -0.01816821 -0.053095426 0.12001595
000270 48 15 15 bf a7 58 a7 be a1 e3 27 3f 09 14 21 3f
       -0.582356 -0.32684824 0.6558171 0.62921196
000280 5c e8 20 3f 4b 91 52 bd 7c 0d f7 be 03 99 4d 3e
       0.6285455 -0.051408093 -0.48252475 0.200779
000290 d3 96 0f 3e 34 1a 19 3e f9 4f 18 bc af 80 9c 3d
       0.14022379 0.14951402 -0.009296411 0.07641732
0002a0 c9 94 8d 3e de d6 af 3d 7b 05 4a 3e 8e 61 07 3e
       0.27652577 0.085859045 0.19728653 0.13220808
0002b0 1c 05 94 3d e8 73 11 be 95 3c 5f 3d db 52 51 bd
       0.07227537 -0.14204371 0.054501135 -0.051104408
0002c0 ae 91 e3 3b 86 32 8e ba 28 74 25 3e 0d e5 93 3d
       0.0069448566 -0.0010848797 0.16157591 0.07221422
0002d0 76 de 81 3c 04 3b 2a bf c5 cb b9 3e 2c e6 36 3d
       0.015853148 -0.664963 0.36288276 0.044653103
0002e0 bd 63 03 3e 79 59 bc be 36 8a 23 bd 34 5b d4 be
       0.12831016 -0.36787012 -0.03992673 -0.41475832
0002f0 f9 74 c7 bc 61 52 86 3e 56 66 61 3e 1c f6 a8 3c
       -0.02434777 0.26234725 0.22011694 0.020625167
000300 06 c8 12 3d 3d 56 26 bd bc 03 f2 bc 66 8e 16 bf
       0.03583529 -0.040609587 -0.029542796 -0.5881103
000310 87 67 94 be 38 24 d7 be 3e ca fc 3e e3 ef 55 be
       -0.28985235 -0.4201982 0.4937305 -0.20892291
000320 21 6c b7 3e f0 18 e9 be 5b a4 4b bf c2 6e 27 bd
       0.35824683 -0.45526838 -0.7954766 -0.04087711
000330 56 27 45 be 44 26 36 bf 17 45 b8 3d 71 19 5d be
       -0.19253287 -0.7115214 0.08997553 -0.21591736
000340 ef e0 4d be 44 c3 45 bf cb aa 9d be a6 5e 52 be
       -0.20105337 -0.77251077 -0.30794367 -0.20543918
000350 28 72 12 bf a0 6b fe be f7 b3 71 3d 1e 5d 91 be
       -0.5720544 -0.49691486 0.05900952 -0.28391355
000360 b5 5e e0 bd d0 b2 2d bf e4 60 bb bd c5 37 27 3e
       -0.10955564 -0.6785097 -0.0914934 0.16329868
000370 76 fd 8b be eb cf ac bc dc 06 9a be 0d 41 dc 3d
       -0.27341813 -0.021095237 -0.30083358 0.10754595
000380 d7 78 e4 be 97 6d 12 3f 1f ae 75 bc 7d 85 96 3e
       -0.44623443 0.5719847 -0.014995127 0.29398718
000390 61 6f a4 be 33 f0 53 3f d4 34 bb be c7 70 80 be
       -0.32116225 0.8278839 -0.36563742 -0.25086042
0003a0 1e ef be be e0 5a 49 be 42 3c 34 3f ed cd 1f bd
       -0.37291807 -0.19663572 0.70404446 -0.039014746
0003b0 38 af 64 3f 7b ed 06 bf d6 66 43 be dc 84 b1 be
       0.8932986 -0.52706116 -0.19082198 -0.34671676
0003c0 68 c7 ab 3d 57 fc db be e2 99 f2 be 79 89 f8 be
       0.08387643 -0.42965958 -0.47383028 -0.48542383
0003d0 5c e9 53 3f d3 95 6f be 82 a8 08 3d d2 30 c0 be
       0.82777953 -0.23396997 0.033363827 -0.37537247
0003e0 2b 60 92 bd 07 15 26 bf 1f 7c 18 3e 81 67 59 3e
       -0.07147249 -0.64875835 0.14891098 0.2123089
0003f0 1b 47 1d be e8 1b 75 be 2e 9e c2 bd 27 0c be be
       -0.15359156 -0.23936427 -0.09502827 -0.37118647

bias_hh_l0 f4 [256]
000000 38 cb 49 bf 9f a5 68 bf 78 f2 7b be 4a 12 8c be
       -0.7882571 -0.9087772 -0.24604213 -0.27357703
000010 54 4b 46 bf 1c 0e ea bd 15 63 0c bf a5 48 33 bf
       -0.7745869 -0.114284724 -0.5483869 -0.7003272
000020 1a 16 1b be 76 df c3 be 32 81 34 bf 85 76 1d bf
       -0.1514515 -0.38256425 -0.70509636 -0.6150897
000030 7e 46 99 be 38 8d aa be 93 00 2d bf 4f 00 04 bd
       -0.29936594 -0.33310866 -0.67579 -0.032226857
000040 15 69 ba bd e4 e9 8b 3e 21 77 b0 be 98 dd 0a bf
       -0.09102074 0.27326882 -0.34465888 -0.54244375
000050 36 6f 06 bf 35 d3 ff be a9 a0 23 bf 41 df cb be
       -0.52513444 -0.49965826 -0.6391702 -0.39818767
000060 33 a9 bd be 08 e0 20 be e0 11 0f bd 98 7b 11 bf
       -0.3704315 -0.15710461 -0.034929156 -0.56829214
000070 06 4d 66 bd 37 ca 0f bf 6b d3 26 bf 4d 78 73 be
       -0.0562258 -0.5616793 -0.6516635 -0.2377636
000080 e5 ca ca 3d 1d 58 c4 be c9 25 01 bf df 70 30 bf
       0.0990198 -0.38348475 -0.5044828 -0.6892223
000090 42 a9 5e bf 27 63 17 bf 20 46 a1 3b b9 a3 1a bf
       -0.86977017 -0.5913567 0.0049216896 -0.6040607
0000a0 79 c2 e3 bd 47 97 4e bf 18 19 3c 3c fb e6 11 bf
       -0.11121077 -0.8069958 0.011480592 -0.56993073
0000b0 1b 4d 52 be 40 ef c6 be ac 32 b3 be c4 c1 29 bf
       -0.20537226 -0.38854408 -0.34999597 -0.6631129
0000c0 2e 44 80 bf b2 7c 14 bf 88 3f 92 bd 77 bf 3e bf
       -1.0020807 -0.5800277 -0.07141024 -0.745109
0000d0 be c1 ad be a9 7f 1f 3d 3c 7c 8f be 49 c5 13 bf
       -0.33936876 0.038940106 -0.2802447 -0.5772291
0000e0 3d 52 33 bf c5 9b e4 be bd ce 2f bf 7b c4 1d bf
       -0.7004736 -0.44650093 -0.6867483 -0.6162793
0000f0 5f d1 5d bf c8 59 0f bf 08 be 78 be 01 ed 08 bf
       -0.866476 -0.5599637 -0.24291241 -0.5348664
000100 49 f8 74 3f cb 3b 74 3e 33 2a ca be f5 77 c4 bf
       0.95691353 0.23850934 -0.3948532 -1.5349108
000110 13 f3 9c 3d 3c 8a be be 61 9b 1b bf 51 f0 30 bf
       0.0766355 -0.3721484 -0.60783964 -0.69116694
000120 d3 98 28 bf 8f da 85 bf d8 df 3c bf 2f 6e 83 be
       -0.6585819 -1.0457324 -0.7377906 -0.2567
000130 57 ec e7 be 5d 17 ab bf 03 f7 09 3f 8f 00 6a bf
       -0.452975 -1.3366505 0.53892535 -0.914071
000140 14 c1 4a be af bc 37 bf b1 08 74 bf 89 13 e5 bd
       -0.19800216 -0.71772283 -0.9532576 -0.11185367
000150 30 d2 fb be d1 7b 83 bf 40 a7 7e 3e d5 fd 86 be
       -0.49183798 -1.0272161 0.24868488 -0.26365533
000160 51 58 09 3f ba 86 0d bf 96 6b b9 bf 14 07 a5 bd
       0.53650385 -0.552837 -1.4485958 -0.08057991
000170 9a c3 04 be e4 27 5c bf 4f ad 09 bf 79 a4 43 bf
       -0.12965241 -0.8599837 -0.5378007 -0.7642284
000180 c7 70 82 bf 02 ea 8f 3d a2 2c c7 3e c4 80 d3 3c
       -1.0190667 0.07027055 0.3890124 0.025818236
000190 6a d2 47 3f 6a 1b 1c 3c 8f 65 4c bf 46 70 05 3f
       0.7805544 0.00952802 -0.79842466 0.5212444
0001a0 0c 3c bc be e3 62 99 3e 67 33 71 bf ca 0e f6 3e
       -0.36764562 0.29958257 -0.9421906 0.48058158
0001b0 40 95 61 bf 5d 1e 27 bf c4 8b ec be 13 b9 c5 3e
       -0.8811836 -0.65280706 -0.46200383 0.38617763
0001c0 62 f6 b5 3e 23 31 09 bf 52 34 2c bf 91 7e 01 3f
       0.35539538 -0.535906 -0.67267334 0.5058375
0001d0 5a 6f cc be 9b 40 c2 be 8f 8a 48 bf c4 d8 22 3e
       -0.39928705 -0.37939915 -0.78336424 0.15903002
0001e0 69 e1 32 be ff 0c 2a bf b7 7f 42 3e 37 58 48 bf
       -0.174688 -0.6642608 0.18994032 -0.78259605
0001f0 24 8f c2 bc 23 b6 c8 be 6b 57 e8 be 4b f1 49 bf
       -0.023749895 -0.3920146 -0.45379195 -0.7888381
000200 b7 2f ca bc 0f 5e e5 3d 58 a6 94 3d fe 55 3a be
       -0.024680955 0.11199581 0.0725829 -0.18196866
000210 bc 53 36 be d8 41 9a be 39 44 0a be c3 05 11 3e
       -0.1780538 -0.3012836 -0.13502587 0.14162354
000220 4e 45 38 3d 1c 39 80 3e 94 5e 6e bd af 8b a5 3e
       0.04498797 0.2504357 -0.058195665 0.32333133
000230 eb 95 08 3e 7a 5e bc be 23 84 21 3e fb cb 25 3e
       0.13338439 -0.3679083 0.15773062 0.16191094
000240 7a 75 ce be 5b 88 65 3e 9c 81 15 bf fe c3 31 3c
       -0.40324003 0.22415297 -0.58400893 0.010849951
000250 40 56 9e bd 77 32 4c 3c 0f 4b b8 3e 10 e4 94 3e
       -0.07731295 0.012463204 0.35994765 0.29080248
000260 98 06 bd be 9f 06 23 be d8 1b 78 be 41 f5 04 3e
       -0.36919093 -0.15920494 -0.24229372 0.12984182
000270 bd 5b ee be df a8 94 be 62 09 0c 3f 38 f3 09 3f
       -0.46554366 -0.29035088 0.5470182 0.5388675
000280 9f fb df 3e 6a 36 87 bd 37 fe 04 bf 93 3f c5 3c
       0.4374666 -0.066021755 -0.519504 0.024078166
000290 27 1d 9d 3c c6 46 01 3e f7 95 5b bd 96 c6 2f 3d
       0.01917894 0.12624654 -0.053609814 0.042913996
0002a0 26 9d 1a 3e 28 e5 cc 3d 7b d4 9e 3e a8 82 fd 3d
       0.1509901 0.100046456 0.31021485 0.12378436
0002b0 5f a8 b9 3d 3d 62 1e be e7 c4 64 3d 91 ca 8c bd
       0.09065317 -0.15467162 0.055851843 -0.06874574
0002c0 e0 fb 8d 3d 15 1e 29 bd 89 cf be 3d 96 39 07 bd
       0.06932807 -0.041288454 0.09316928 -0.033013903
0002d0 b8 55 80 3c d1 ed f9 be 27 7a 65 3e 88 00 e3 3c
       0.015665874 -0.48814252 0.22409879 0.027710214
0002e0 04 34 76 3e 2c ec b3 be d0 28 b5 3d f8 1e 99 be
       0.2404328 -0.35141122 0.08845675 -0.2990644
0002f0 51 92 b4 3d 7d 1b 5c 3d af 9e 0a 3e 18 48 3f 3e
       0.0881697 0.053737152 0.13537095 0.18679845
000300 2f bd 3f 3e df c2 b1 3a 2b 8f b1 3c 79 b3 13 bf
       0.18724512 0.0013562104 0.021674713 -0.5769573
000310 5b 91 64 be 54 33 d6 be 26 e3 17 3f 5a c8 75 be
       -0.22321074 -0.41836035 0.59330976 -0.2400221
000320 23 67 a3 3e e9 88 e1 be cb d0 36 bf 2d 66 a6 bc
       0.31914625 -0.44049767 -0.7141234 -0.020312393
000330 1f c0 b5 bc 82 5c 57 bf 16 42 3f 3e e1 c7 a4 be
       -0.022186337 -0.8412553 0.18677554 -0.32183746
000340 81 e8 67 be e9 b3 46 bf 17 8b 32 be 56 05 d0 bb
       -0.22647287 -0.7761827 -0.17435871 -0.0063482923
000350 e7 94 bb be 68 86 20 bf f0 7d 94 3c 30 6b ea be
       -0.3663704 -0.6270509 0.018126458 -0.45784903
000360 6d 89 13 be 2f 5d 57 bf 1e 39 4a be 2d 99 cc 3d
       -0.14407893 -0.8412656 -0.19748351 0.099901535
000370 b7 d2 a8 be 67 a8 a6 bc 12 28 b5 be 44 ae 5a 3d
       -0.32973263 -0.020343972 -0.35382134 0.05338885
000380 dc 1c 83 be f5 e9 02 3f 46 ac f3 bd ba 4e d1 3e
       -0.25607955 0.5113824 -0.11898093 0.40880376
000390 1d 87 9f be 1c 43 5c 3f 7b f2 18 be 5a de 89 be
       -0.3115777 0.860399 -0.14936249 -0.26927453
0003a0 97 be c2 be b2 14 53 be 03 45 fe 3e 91 d1 87 bd
       -0.38036034 -0.20613363 0.49662027 -0.066317685
0003b0 a0 9b 65 3f 8a 25 ca be 3a 15 7e bd 45 e6 68 be
       0.8969059 -0.39481765 -0.062031962 -0.22744091
0003c0 1c 74 45 3d b0 89 01 bf e5 1c 94 be a0 8c 0c bf
       0.048206434 -0.5060072 -0.28928295 -0.54902077
0003d0 14 cf 4c 3f c2 73 0d be 45 00 43 3d 9a b5 cc be
       0.80003476 -0.1381369 0.04760768 -0.399823
0003e0 d5 bb 49 be 27 83 3a bf fc 9d 62 3d 2b 22 b3 3d
       -0.19700558 -0.7285637 0.055326447 0.087467514
0003f0 b1 38 25 be 07 64 3a be a8 7b a6 bd 7b c2 ae be
       -0.16134907 -0.1820222 -0.08129054 -0.34132752
