src/lerobot/robots/unitree_g1/assets/g1/mimic/dance_102/policy.onnx (onnx, 990556 bytes, 8 tensors)

actor.0.weight f4 [512, 154]
000000 b3 77 13 3e 72 cf 01 bd 47 a1 67 3e b8 01 f7 bc
       0.1440113 -0.031691976 0.22620116 -0.030152187
000010 3f 25 82 bc a9 f0 34 3e 74 d1 43 be a0 05 0b be
       -0.015886901 0.1766993 -0.19122869 -0.13576365
000020 71 3d b9 bd d9 8d ab bd b1 fa 3b 3c 80 83 a6 3d
       -0.09044922 -0.08376665 0.011473344 0.081305504
000030 25 d9 af 3d fe f6 72 3d 02 b0 07 bc 77 5c 26 3e
       0.08586339 0.05931758 -0.00828171 0.1624621
000040 67 b3 c1 bc 14 f6 a4 bd bb 5c d5 3d cb 32 af 3d
       -0.023645116 -0.08054748 0.104180776 0.0855461
000050 9d bc 04 be 1d 79 dc bc 64 d0 8e 3d 4b 96 03 3e
       -0.12962575 -0.02691322 0.06973341 0.12850301
000060 33 6a 46 bc 28 1b 89 be 8b 12 6c bd 2d 29 79 3d
       -0.012110281 -0.2677853 -0.05763487 0.060830284
000070 24 0d 52 be bc 8a b7 bd 2d a2 d0 3d 0a ee 51 3c
       -0.20512825 -0.08962008 0.101871826 0.012813101
000080 84 49 8b bd b7 87 83 bd 25 88 06 3d 03 7c 2d 3d
       -0.06801131 -0.0642237 0.03284468 0.042354595
000090 39 da 46 3c 76 06 4d 3c 70 81 b3 3c 22 5c 01 3d
       0.012136989 0.012513747 0.021912307 0.031582005
0000a0 c5 32 1e 3d 1a 24 09 3d 9c 81 44 bb 62 dd 1e bd
       0.038622636 0.033481695 -0.002998448 -0.038785346
0000b0 95 c0 d2 3d b0 da 25 bd 08 c8 3e bd 61 7b 16 bd
       0.10290638 -0.04049176 -0.046577483 -0.036738757
0000c0 9e b0 87 3c 70 44 87 bd 0f 12 75 bc de a8 02 3a
       0.01656371 -0.0660485 -0.014957919 0.00049842696
0000d0 1b 3b ad 3d 62 78 ae bd c6 84 e2 bd 0e e7 01 be
       0.08458539 -0.08519055 -0.11060481 -0.12685797
0000e0 25 02 be be 61 a2 98 be bc c4 e5 bd c8 c1 2b bd
       -0.3711101 -0.29811385 -0.11219165 -0.04193285
0000f0 85 17 0b 3e 1e 49 89 3b 0a 5b 92 be 42 ab 5d be
       0.1358319 0.0041896245 -0.28585082 -0.21647361
000100 1e 04 80 3d a3 85 55 bd e3 7b 41 bb 65 4c c0 be
       0.06250785 -0.0521294 -0.0029523305 -0.37558284
000110 32 ac d7 3e 91 7a 4f 3d 6f e8 b9 3e db e3 76 3c
       0.42123562 0.050653998 0.36310145 0.015068973
000120 cc 8d 99 be 2f 93 2f be 39 a1 1b bd de ee e6 3d
       -0.29990995 -0.1714599 -0.03799555 0.11276029
000130 12 ae fb be 0b 4a ad 3e a8 66 27 3d 93 32 8e bd
       -0.49156243 0.33845553 0.040869385 -0.0694324
000140 21 9b 5f bd 60 cc 75 3e 05 ba 88 3d 2f 44 8b 3d
       -0.0545913 0.24003744 0.066761054 0.06800114
000150 18 14 b9 be 44 19 29 be 01 40 4c 3c d2 ba 9d bd
       -0.36148143 -0.16513544 0.012466432 -0.07701649
000160 c2 6b 80 bc a7 60 53 3e e7 6e 9c 3d 80 4b 5c bd
       -0.015676383 0.20642339 0.076383404 -0.05378294
000170 5d 0f b5 bd 89 ee 76 3d 32 e5 91 bd 74 92 27 3d
       -0.08840821 0.06028608 -0.07123794 0.040911153
000180 41 be 55 3d 97 2d 07 be 9e f5 90 bd e3 60 ab 3d
       0.052183393 -0.13200985 -0.07078098 0.08368089
000190 94 4f 3a bd 32 74 b0 3c 3c 22 69 bb 2a 4c 88 bc
       -0.045486048 0.021539781 -0.0035573384 -0.01663788
0001a0 66 d2 55 bc 6b b8 76 bc 75 84 b7 3c 2e 9b 90 3c
       -0.013050651 -0.015058617 0.022402028 0.01765212
0001b0 1c 9f f1 bc 8f 86 0a 3c ae 59 8f bc a8 01 cb bc
       -0.029494815 0.008454933 -0.017498817 -0.024781063
0001c0 de 57 4c bd 56 42 27 3d 74 51 28 bb 24 cf ce bc
       -0.049888484 0.040834747 -0.0025683315 -0.025245257
0001d0 dd b3 bb bc c5 12 3e bd cb d2 1d bd e6 af 06 bc
       -0.022912914 -0.04640462 -0.038531106 -0.008220648
0001e0 57 a2 6a 3a bf 31 10 bb cc 99 27 3d 52 3c a8 bc
       0.0008950582 -0.0022002307 0.040918157 -0.020536575
0001f0 28 8d 93 bb 43 fa 56 bd 73 59 ac bd 46 e1 8d 3c
       -0.004502911 -0.052484762 -0.084154986 0.017319333
000200 f6 54 b4 bd 7b bd 3a 3d 1a c1 75 bc 74 c2 35 3c
       -0.088052675 0.04559086 -0.014999652 0.0110937245
000210 f0 f8 b3 bd 5b da 45 bd dd 2f ba bd cd 17 58 bd
       -0.087877154 -0.048303943 -0.090911604 -0.052757073
000220 a7 39 c8 3c f9 71 9b bc d1 7f 8f bb ce ba 0b be
       0.024441553 -0.018975245 -0.0043792506 -0.13645479
000230 2e ca 3b 3d f5 5c 93 3d be 58 2c 3e 53 b6 e2 3d
       0.04584711 0.071954645 0.16830727 0.11069932
000240 81 9e 35 bd f9 17 f5 bd 71 90 35 bb e5 42 89 3d
       -0.044340614 -0.11967463 -0.0027704502 0.06702212
000250 98 0c 55 3d 1c d4 b0 bd 9c f5 06 3d 0a 10 f9 bd
       0.052013963 -0.08634207 0.032949075 -0.12161262
000260 e6 6f 90 bd 1e 89 21 bc 47 85 d8 bd 88 2e 05 be
       -0.07052593 -0.009859351 -0.10572296 -0.13006032
000270 86 de 43 3d a9 c8 54 3d 93 4b 9b 3c a2 55 36 bd
       0.047819637 0.051949177 0.018956935 -0.04451526
000280 3e 49 89 bd f5 7e f6 3d ec c0 cc 3c a7 98 a8 3c
       -0.06703423 0.12035934 0.024994336 0.020580603
000290 6d 62 40 3d aa 9d 97 bd 82 d3 02 3d ac bf c3 3c
       0.046968866 -0.07403119 0.03193999 0.023895107
0002a0 7c 81 14 3e 0d 3b 3b be 82 77 58 bd 8a 22 4d 3d
       0.1450252 -0.18284245 -0.052848347 0.050081767
0002b0 c4 31 4d 3d fe 8c 4d 3e 0a 19 e2 bd 96 e3 09 be
       0.05009629 0.20073316 -0.11039932 -0.13465723
0002c0 f1 d8 8c bd c7 b7 29 bd dd de 8a bd 21 3b 3b 3e
       -0.06877316 -0.04143503 -0.06780789 0.18284275
0002d0 9a 12 bb 3c 11 44 81 3d fd 53 44 3e 28 15 50 3d
       0.022836018 0.06311811 0.19172664 0.050801426
0002e0 62 d0 60 3d 9e 47 80 bd ce 24 27 3c 28 75 f3 bc
       0.05488623 -0.0626366 0.010201646 -0.02971895
0002f0 14 85 55 3a a9 9c 7d bd dc 35 61 bd 7d ce 23 3d
       0.00081451354 -0.06191698 -0.054983005 0.039991844
000300 0f 82 2f 3d 01 56 d4 bc e2 cb 6b bc fa 97 b1 3b
       0.042848643 -0.025919916 -0.014391871 0.0054197283
000310 65 41 11 bb b2 6b 8b 3d 4d d9 02 bc 1c ab 6d 3d
       -0.0022164222 0.068076506 -0.007986379 0.05802451
000320 92 11 09 bd 0a 1a c2 bc 75 ac 25 bc 07 e3 32 bb
       -0.033464022 -0.023694057 -0.010111918 -0.0027295963
000330 46 25 df 3c a6 5f 5b bc 48 3e ba bd 0e cf ac ba
       0.027239453 -0.013389504 -0.090939105 -0.0013184266
000340 aa 1e ec bd 19 34 33 be a5 f1 5e 3e bb 31 8a 3c
       -0.11529286 -0.17500342 0.21771868 0.016869416
000350 34 e5 ea 3c d0 64 bd 3d b0 fb 10 be 4b 90 ec 3c
       0.028673746 0.09247744 -0.14158511 0.028877398
000360 02 11 35 3f d6 4a 27 3f a4 c9 f0 bc e0 86 6a 3e
       0.70729077 0.65348566 -0.029393025 0.22903013
000370 97 07 6c bc d4 74 9a 3e f2 6f 3b 3d 68 78 0f be
       -0.014406106 0.30167258 0.045761056 -0.14010775
000380 f3 50 81 3d 0d 0c 42 be 1c 6c 8c 3e 9a 0c 0c 3e
       0.06314268 -0.1894991 0.2742623 0.13676682
000390 b6 a6 b9 3e 5d e8 30 bf 4a 9a 1b 3e 55 b2 b2 3c
       0.36260003 -0.6910456 0.15195575 0.021813551
0003a0 17 a8 08 3e 98 f6 d0 3c 7a 8f 15 be 3c ee c7 ba
       0.13345371 0.02550821 -0.14605513 -0.0015253494
0003b0 37 19 41 be 36 6b e1 3d 8a 24 99 be d1 c1 94 3e
       -0.18857275 0.11006777 -0.2991069 0.2905412
0003c0 f8 86 10 3e c8 de 8a ba 07 d9 87 bd 5d 98 ba bc
       0.14113986 -0.0010594958 -0.066331916 -0.02277773
0003d0 56 10 67 3c 31 af 10 3e e3 fb 2c be bb a6 b3 bd
       0.014103016 0.1412933 -0.16892962 -0.08772036
0003e0 4c 70 83 3e cf 09 8b bd a6 d8 ad 3c a3 81 d6 3d
       0.25671613 -0.0678898 0.02122147 0.10473945
0003f0 19 57 66 bd f6 00 d8 3c 1b e9 aa bd 0c 4f 3a 3d
       -0.056235407 0.026367646 -0.083452426 0.04548554

actor.0.bias f4 [512]
000000 65 41 0a be 0b 9f 75 3c f0 3d 4f bd 4c 53 f2 3b
       -0.13501509 0.014991532 -0.050596178 0.0073951837
000010 13 9b ac bd 57 9e b8 bd d5 60 0e bc 8b 71 bf bd
       -0.084280156 -0.09014576 -0.008690079 -0.093478285
000020 a4 b1 a2 3d 87 e6 8a bc 93 bb 84 3d bf c9 a1 3d
       0.079440385 -0.016955627 0.064810894 0.07899808
000030 b1 96 97 3d 2b 47 a6 3c 28 c2 a9 bd 0a e3 82 3d
       0.07401789 0.020297607 -0.082889855 0.063909605
000040 d2 62 44 bd b8 4f ec bd f0 4e 48 bd bf 2a 06 3d
       -0.047945805 -0.11538643 -0.048903406 0.03275561
000050 c1 c8 ba 3b 83 29 95 3c c9 e3 2b bd d5 dd b0 3c
       0.0057002013 0.01820827 -0.04196528 0.021590153
000060 45 09 e2 3d 3e cd aa bd d0 c2 8b bd 7c 00 6a bd
       0.11036924 -0.08339928 -0.06824267 -0.05712937
000070 d8 7a 84 bb b0 32 0b 3d 50 17 ca bd 08 02 f0 bd
       -0.0040429644 0.033983886 -0.09867728 -0.117191374
000080 9a 5f 0e be 4e e5 0d bd 56 c1 c9 bd 3d 7a 09 be
       -0.13903657 -0.03464251 -0.09851329 -0.13425536
000090 86 98 ca bd e7 95 2b 3d 4c 2f 33 bd 4b 0a 1c bc
       -0.09892373 0.041891005 -0.043746278 -0.009523938
0000a0 3a 54 01 be b1 8a 68 3c 99 8c 86 3d b0 5a 9e bc
       -0.12629786 0.014193223 0.065697856 -0.019330353
0000b0 f8 61 c1 bc 46 49 36 bd 71 75 c7 bc 50 3c a7 3d
       -0.023606285 -0.044503473 -0.024347993 0.081658006
0000c0 37 b5 43 3b ef 4d 42 3d a1 b3 06 be 99 38 86 bc
       0.002986265 0.047437605 -0.1315446 -0.01638441
0000d0 0d 65 b3 bb 15 c8 88 bc 7a 84 c6 bd 70 07 3f 3d
       -0.0054746927 -0.016696969 -0.09693237 0.046637952
0000e0 93 58 b5 3c 0d 05 c5 bb 87 c8 c0 bd 8c 57 05 be
       0.022136962 -0.006012565 -0.094132476 -0.13021678
0000f0 a6 85 02 bd f2 28 86 bd b2 0f 9c 3d 77 22 8f bc
       -0.03186574 -0.065507784 0.07620181 -0.017472489
000100 30 65 ad bd 6a 3f 5d bb c3 47 67 3b 27 92 8b bd
       -0.084665656 -0.0033759722 0.0035290576 -0.06814986
000110 87 5f 98 bd bf bf f3 3d 5a 53 de bd 81 d6 ad 3d
       -0.074400954 0.11901807 -0.10855742 0.08488179
000120 60 85 da bc 64 24 6d 3d 37 8f 11 be a6 af 9f bd
       -0.026674926 0.057896033 -0.14214788 -0.07797174
000130 fb 1a 8c bd 4e 0c 77 3b 87 8d 78 3c 5e a5 7e bd
       -0.068410836 0.0037696543 0.0151704615 -0.062169425
000140 d1 41 84 3c d7 81 14 be 86 0a 8c bc b9 0e c7 bb
       0.016144665 -0.14502655 -0.017094862 -0.006074753
000150 86 10 56 bd ca e6 d9 3c 9e be 93 bd 1d 34 6d bd
       -0.05226185 0.026599307 -0.07214092 -0.057911027
000160 d2 69 8f bd d3 ab 44 3d f1 f7 06 3d 0b 34 7a 3d
       -0.070026055 0.048015427 0.0329513 0.06108479
000170 e6 c9 fb bd 73 c7 58 bd 05 30 e4 bb d8 27 f1 bc
       -0.122943684 -0.052924585 -0.006963732 -0.029437944
000180 4a 74 d5 3c c7 3e 89 3d 15 93 1e 3c 22 8e 97 bd
       0.026056428 0.06701427 0.009678622 -0.074001566
000190 64 1f 20 bd f1 ee fd 3c bf f7 46 3d 01 b6 4a bd
       -0.039092436 0.030997725 0.048576113 -0.04948998
0001a0 c8 e8 cf bd 12 98 ba 3c ec 92 e5 bd eb a0 16 3d
       -0.101518214 0.02277759 -0.11209664 0.036774557
0001b0 1b 6e 81 bc 14 3e 88 bd 51 a0 c0 3c 2f c5 82 bd
       -0.015799573 -0.066524655 0.023513945 -0.06385266
0001c0 c2 46 ca 3c 93 bb c1 bd 47 27 a8 3c 93 d3 65 bd
       0.024691943 -0.09459605 0.020526541 -0.056109976
0001d0 9e fb 88 3b 49 c6 ce bd 47 4d 86 3d 23 ea 0a bd
       0.0041803857 -0.10096414 0.06557708 -0.033914696
0001e0 82 82 6b bd b8 b2 8f 3c 76 b8 aa 3d 1e 03 f2 3c
       -0.05749751 0.017541274 0.083359644 0.029542502
0001f0 c9 88 54 3d 5f 90 77 bd 66 03 94 3d e3 ec 27 be
       0.05188826 -0.060440417 0.07227211 -0.16398959
000200 8a c7 88 ba eb 2b 85 bd b9 63 91 bc f1 c6 9d bd
       -0.0010435444 -0.06502517 -0.017747747 -0.07703961
000210 ad b0 2c 3d 74 7e 77 bd fa c1 98 3c 09 78 c4 bd
       0.04216068 -0.06042333 0.018647183 -0.095932074
000220 4c bb c9 3c 69 f3 bf bd 09 ef 84 3d e9 17 d3 bd
       0.024625443 -0.09372599 0.06490905 -0.10307295
000230 1a 0f 34 3a b0 6b a7 3c 61 2d 97 3d a2 0c 61 3d
       0.00068687054 0.020437092 0.07381702 0.05494369
000240 a1 96 99 bd 11 eb e8 3c 1d 3c 92 3d 94 08 ac 3d
       -0.07499433 0.0284324 0.07140372 0.08400074
000250 1e 4a 0d bd bf c1 a5 bd 1a 19 ce bd 97 e0 99 bd
       -0.03449451 -0.08093595 -0.100633815 -0.0751354
000260 de 2f cc bb 1a c1 7e 3d b4 b2 fd 3c 8c e2 36 bd
       -0.006231292 0.062195875 0.030969001 -0.044649646
000270 0c 19 98 3c 39 cb 36 3d df 73 0b bd 73 c2 fa bb
       0.01856663 0.044627402 -0.03404605 -0.0076525747
000280 e3 df 74 bd 77 ff 3b bd 40 2b ba bd bf 8e c2 bb
       -0.059783828 -0.045897927 -0.090902805 -0.005937427
000290 4b 39 c8 3c 02 be 94 bd 6f 5e ba 3b 7b 7f 26 3d
       0.024441382 -0.072628036 0.005687527 0.04064892
0002a0 f4 e5 d5 bc db ca 00 be d1 93 0b bd 1a c0 a3 bd
       -0.026110627 -0.12577383 -0.034076516 -0.07995625
0002b0 77 5f 01 be a3 07 59 bc f1 b1 88 bd 9f 20 4e bd
       -0.12634073 -0.01324645 -0.06674565 -0.05032408
0002c0 39 a3 eb bc 9b ae a8 bd 59 c4 11 be 17 16 bd bd
       -0.028764354 -0.08236428 -0.14235057 -0.09232729
0002d0 bc ab b4 3d 32 6d f3 3b 90 ad 5d 3d 73 a2 4c 3d
       0.08821818 0.0074287886 0.0541206 0.04995961
0002e0 2e a8 23 bd 49 98 cf bd bf f0 1b 3d 31 fc 57 3d
       -0.03995531 -0.10136468 0.03807139 0.052730743
0002f0 af d1 d1 3c b8 73 99 bd 90 e8 e6 bc fb e7 5d bd
       0.02561268 -0.07492775 -0.028187066 -0.054176312
000300 59 30 b0 bd bd 01 0e bd d5 73 1c bd 46 6f 37 3c
       -0.086029716 -0.034669627 -0.038196404 0.011195963
000310 72 c1 a2 3d 10 74 eb bd e2 23 b9 bb d6 ab 9b 3c
       0.07947053 -0.114967465 -0.0056500295 0.019002836
000320 5b 11 03 be 3e 44 03 be 8c 13 d6 bc 02 55 fb bd
       -0.1279959 -0.12819001 -0.026132368 -0.12272073
000330 dc 94 ad bd 72 14 24 be 28 89 75 bd 99 de 1a bb
       -0.08475658 -0.16023424 -0.059945256 -0.0023631214
000340 a5 df 03 3e eb a8 07 be 82 ce a9 3d e2 b4 ec bc
       0.12878282 -0.13248031 0.08291341 -0.028894845
000350 0a 9c 1a bd a6 5f 1b bd 19 76 ea 3c 3a 39 c2 bd
       -0.037746467 -0.037933014 0.028620766 -0.09483571
000360 6d b9 b1 3c c0 2e 69 bd ca cb b6 3c 12 f7 86 3c
       0.021694863 -0.05692935 0.022313971 0.016475234
000370 b2 c8 65 bd 7f 6a 92 bd f7 bd dc bd 71 20 e8 3d
       -0.0560996 -0.07149219 -0.107784204 0.11334313
000380 c2 64 88 39 95 9b 36 3d 6a 97 3e bd d8 e5 a2 bd
       0.00026015012 0.04458197 -0.04653112 -0.079539955
000390 63 b3 89 3d cf 75 02 3b fd 4a b7 3d 36 6b a4 3c
       0.067236684 0.0019906645 0.0894985 0.020070653
0003a0 1b e2 c1 3d d3 a7 f9 bd 2b ff 3a bd ab a8 ca 3c
       0.09466954 -0.12190213 -0.045653503 0.02473863
0003b0 06 91 e5 3c af 3f 26 3d 53 5f fe 3d 8d 30 0c bd
       0.028023254 0.040588077 0.124205254 -0.03422599
0003c0 ee 97 2e 3d 76 60 f8 bd 1e f8 e2 bd f5 a0 bf 3c
       0.04262536 -0.121277735 -0.11082481 0.02339218
0003d0 5c 05 ad bd 8d 37 d9 3b 69 e1 4f 3d 24 43 af bc
       -0.08448288 0.0066289366 0.050752077 -0.02139432
0003e0 3f 9b 0c 3d 33 ab 8e bd b0 23 f8 3c 9f 70 17 bd
       0.03432774 -0.069662474 0.030290455 -0.03697264
0003f0 5c 32 47 bd fe 85 26 bc fd 61 d4 3a c3 67 f7 bd
       -0.04863201 -0.010163782 0.0016203519 -0.12080338

actor.2.weight f4 [256, 512]
000000 bc 71 26 3d 4e e4 08 bd c0 b7 c7 3c c9 dd 3c bb
       0.04063581 -0.033420853 0.024379611 -0.0028818718
000010 d1 26 98 3c 14 1e a2 bc 7f 10 f4 3c b6 76 86 3d
       0.018573197 -0.019789733 0.029793022 0.06565611
000020 4e 91 be 3c e8 14 8b bd 91 2d 50 3c 3c 41 d5 3c
       0.023262646 -0.06791097 0.012706176 0.026032083
000030 de 4a 70 3c 6f 88 fb bc bb 3a a3 bd 2f e8 48 3d
       0.014666287 -0.030704705 -0.07970186 0.049049553
000040 ef a6 92 bd 1c 70 21 bd bd 0d 8c bd 7c d7 f7 bc
       -0.07160746 -0.039413556 -0.06838558 -0.030254118
000050 70 de 2a 3d 03 d9 0c bd e4 08 41 3b 1b 6c 48 bd
       0.04171604 -0.034386646 0.0029454762 -0.048931222
000060 4a a5 f1 3c 20 60 a0 3c e7 c1 30 3d 35 bc cf 3c
       0.029497761 0.019577086 0.04315367 0.025358299
000070 83 eb 32 bd 46 9d 02 3d 34 e4 33 3d d2 03 d6 3d
       -0.043681633 0.03188827 0.043918803 0.104499474
000080 04 93 9f 3d 2a 2c 47 3c df 60 71 bd 25 24 8e bd
       0.07791713 0.012156526 -0.058930274 -0.06940488
000090 6e 0e 83 bd f7 1e 19 bd cc 99 5d 3d 19 e0 23 bc
       -0.063992366 -0.037383046 0.05410175 -0.0100021595
0000a0 6d f0 81 bd 3f 09 84 3d 89 87 7f bd be 5e 1e bd
       -0.06344686 0.06447076 -0.062385116 -0.038664572
0000b0 07 96 09 bd ed 17 5e bd 80 98 53 bc b2 29 36 bd
       -0.033590343 -0.054222036 -0.012914777 -0.044473357
0000c0 b3 aa b9 bd e0 09 0b bb cb a8 d2 bc 2e 0a a1 bc
       -0.090657614 -0.0021215603 -0.025715252 -0.019658174
0000d0 a3 69 12 3c c2 b9 27 bd 12 6d 73 3b a6 c9 fd b9
       0.008936319 -0.040948637 0.0037143868 -0.0004840616
0000e0 7c 5b 1e bd 3a a2 9f bc 37 0e 8e 3c fc f5 bb 3c
       -0.038661465 -0.019486535 0.017340763 0.022944443
0000f0 28 3f 04 3d a4 99 05 bc 5a aa e4 bd 19 2a b7 bd
       0.032286793 -0.008154307 -0.111653045 -0.08943576
000100 c5 a0 62 bd 53 25 aa 3d 5f 09 b0 bc 49 ed ad 3b
       -0.055329103 0.083079 -0.021488843 0.0053078276
000110 d1 e9 cd bc 1f 5b 66 3d 0e f9 74 3b d2 8a fd bc
       -0.025135906 0.056239244 0.0037379893 -0.030949984
000120 c4 38 a3 3d 64 13 59 bd 53 68 2b 3d c3 97 a1 3c
       0.079698116 -0.052997008 0.04184754 0.019725686
000130 40 77 45 bd 65 32 f1 3c 41 8f f2 3c 11 15 f6 3c
       -0.04820943 0.029442975 0.029609324 0.030039342
000140 02 9e c6 3d 54 a2 38 3d f0 9f 49 3b 33 2d ee bb
       0.09698106 0.045076683 0.0030765496 -0.0072685718
000150 f1 97 b1 3c 96 ec 52 3b b2 ed 0a bc ad 1e 0b 3d
       0.021678897 0.0032184473 -0.008479523 0.0339648
000160 0b 8d 93 3d aa 46 4a 3c a3 00 65 bd 13 93 f3 bc
       0.07204636 0.012345949 -0.05590881 -0.029733216
000170 84 84 5e 3c 62 3b 47 bd a4 60 07 3c 50 93 78 3c
       0.013581399 -0.048640616 0.008262787 0.015171841
000180 32 40 33 3c 22 99 27 bd ec 89 17 bd 56 ef 35 bd
       0.010940598 -0.040917523 -0.036996767 -0.0444177
000190 75 b5 a2 bc 1f 8d bb bc fa af 98 3d 76 a5 0b bd
       -0.019861916 -0.02289444 0.0745544 -0.034093343
0001a0 de 4d 44 3d b5 a8 20 bd 59 77 df 39 dd 57 50 bd
       0.047925822 -0.03922339 0.00042622795 -0.050865043
0001b0 c2 0c 09 bd f6 ed 92 3c e6 15 fd bd 84 e7 a0 bc
       -0.033459432 0.017935734 -0.123576924 -0.019641645
0001c0 f8 ef ce bc b2 48 19 bd f5 36 2b 3d 15 d3 be bd
       -0.02526091 -0.037422843 0.041800458 -0.093176045
0001d0 6a 53 c5 3c 36 1d 75 bd 37 30 d5 bd 41 b6 92 3d
       0.024087626 -0.05984231 -0.10409587 0.071636684
0001e0 ee d7 31 bc 5f 9f 0e bd 2f 1d c6 bc bc 9f 31 bc
       -0.010854704 -0.034819957 -0.024183838 -0.010841306
0001f0 2c 8d fe bc 5d fc 1e 3d 39 3b 13 3d 42 50 09 3d
       -0.031073175 0.03881489 0.03594515 0.033523805
000200 ff d6 a0 bd f3 37 00 bd 48 4c 1f bb 9e bb b7 3d
       -0.07853507 -0.031303357 -0.0024306942 0.08971332
000210 c0 3b c7 bb a4 bb ee bc c4 23 b8 bb 2c 11 5a bd
       -0.006080121 -0.029142208 -0.005619498 -0.053239033
000220 fa 38 35 3d 47 de 9f bb 2a 82 cc ba de 0a ad bc
       0.04424379 -0.0048787924 -0.0015602757 -0.021123346
000230 53 05 03 3d 41 36 b5 bc 3b d6 2c 3c bb 1d e4 3b
       0.0319875 -0.022120597 0.010549123 0.006961552
000240 a7 40 61 bb c8 af 10 3d 91 3f f8 bc 93 9d f6 3b
       -0.0034370811 0.035323888 -0.030303748 0.0075261085
000250 6e c6 03 3c a4 ce a7 3d 0a 1a 3b bd 12 89 3b 3d
       0.008042915 0.081937104 -0.04567913 0.045785017
000260 3a bd 66 3d 65 16 de 3c 01 f5 01 bd f0 ac 94 3d
       0.056332804 0.027110288 -0.031727795 0.07259548
000270 74 a8 40 bc f1 f1 ab 3c 57 64 b4 3c 92 e7 2f 3c
       -0.011758912 0.02098939 0.022020502 0.010736363
000280 76 05 82 3b 06 50 72 3d d1 09 44 bd fc 6f 7e bd
       0.003967936 0.059158348 -0.047860924 -0.062118515
000290 3a e2 35 bd 5a 1a e2 bb e3 1b d2 bb d2 76 50 bd
       -0.0444052 -0.006900114 -0.0064120158 -0.050894566
0002a0 65 7d 51 3c d9 5e 96 3c c9 91 34 3d 80 7b c0 bc
       0.012786244 0.018355774 0.044084344 -0.02349639
0002b0 27 91 15 3c 72 52 a9 3d b0 f7 9b bc c6 ed 1b bd
       0.009128845 0.08267678 -0.019039005 -0.038068555
0002c0 04 bb 3a bc 58 f7 37 3d f3 30 3c bc 81 2e 54 3d
       -0.011397127 0.04491362 -0.01148628 0.051802162
0002d0 13 03 7f bb e2 88 2e bc 07 0f 06 be f8 68 9d 3d
       -0.0038911744 -0.010652753 -0.1309167 0.07686037
0002e0 bb ce ae 3b 09 3d 4f 3d 85 cf a0 3c e0 f7 0b bd
       0.005334703 0.050595317 0.019630203 -0.03417194
0002f0 b7 80 c2 bc e0 5f 1a bd c9 5a 97 bd 04 f1 1b bc
       -0.023743017 -0.03768909 -0.07390363 -0.009517912
000300 47 c8 43 bc c7 81 93 3d 9c 50 d4 bc 00 ca 2c bd
       -0.011949605 0.072024874 -0.025917344 -0.04218483
000310 08 f0 0b bd e8 c2 a1 bd 0a 05 75 3c 65 91 35 bd
       -0.03416446 -0.078985035 0.014954815 -0.044328112
000320 02 da b1 bc 90 9c 8a bc c3 4a 20 3d 67 0d 57 bb
       -0.0217104 -0.016920358 0.0391338 -0.0032814385
000330 77 e3 e1 3c e9 2a fe bb 3a f4 91 bd 35 56 39 3c
       0.027574284 -0.00775658 -0.07126661 0.011312057
000340 be 97 8e 3d 0a f0 d7 bc 12 fc ab bd 71 ed cc 3b
       0.06962536 -0.026359577 -0.08397688 0.006253891
000350 cb d9 4d bd a0 2a fd bc 4e 3e e4 bc ca b5 af 3d
       -0.05025653 -0.030904114 -0.02786174 0.085795954
000360 d7 75 86 bd 5b d7 ba bd e4 e9 91 3d 75 ab 6a 3d
       -0.06565445 -0.09123107 0.07124689 0.05729242
000370 bf d9 5e 3c 3b 59 96 3c 19 64 0d bc db a6 86 bd
       0.013601719 0.018353095 -0.008629822 -0.06574794
000380 23 0c 13 bd 96 c8 17 3d fd e4 40 bd ff 99 65 bd
       -0.035900246 0.037056528 -0.04709338 -0.056055065
000390 27 06 8f 3c 69 4c 2a 3b e1 d9 d6 3d 7d 57 90 bd
       0.017458988 0.0025985485 0.10490776 -0.07047937
0003a0 dc 3b 2c bd dd 3e cb 39 f0 24 ef 3c a2 02 79 3d
       -0.042049274 0.00038766014 0.029192418 0.060793526
0003b0 27 20 92 bd 55 df f4 bb f0 3e c5 bd 51 51 5e bd
       -0.07135039 -0.0074729123 -0.09631145 -0.054276768
0003c0 3b bf d7 bd 78 c2 1f 3d 54 aa 2e 3c ff 01 a6 bd
       -0.10534521 0.03900382 0.010660727 -0.081058495
0003d0 20 48 7e bd 73 d8 00 bd e7 f1 07 be 29 bb 03 bc
       -0.062080503 -0.031456422 -0.13275872 -0.008040228
0003e0 33 4b 9f 3c 28 f2 3c 3a 1e 4a 92 bc 53 27 09 bd
       0.019445037 0.0007207715 -0.017857607 -0.033484768
0003f0 e4 07 29 3d ad f9 00 bc 1e 4c 5f bd f7 7f 12 3b
       0.04126729 -0.007872027 -0.05451595 0.0022354105

actor.2.bias f4 [256]
000000 07 b1 8e 3c 8d 07 bf bd 6d 1c e5 39 df d4 58 bd
       0.017418398 -0.09327612 0.00043699463 -0.052937385
000010 a3 31 16 bd ff 8d a2 bd c9 f3 f5 ba 07 c4 a8 bc
       -0.03666843 -0.0793724 -0.001876467 -0.020601286
000020 8f 4c f3 3c 82 75 87 bb 6f c1 ac 3c 8d ce eb bc
       0.029699592 -0.004133881 0.02108833 -0.028785015
000030 72 35 b6 bd 15 d4 d5 bc 36 a5 67 bd 30 73 d4 bc
       -0.08896913 -0.026102105 -0.05655404 -0.025933832
000040 53 dd 76 3d 4c 31 ef 3c 61 c5 f4 bc 7b 0a 99 3c
       0.060269665 0.029198311 -0.029879274 0.018681755
000050 61 59 43 3d c4 b1 0d 3b 32 49 0b bd ce d4 9d bd
       0.04769266 0.002162085 -0.03400535 -0.07706605
000060 02 55 5b bc e1 35 d5 bc 64 ed 99 bd f7 ea eb bd
       -0.013386967 -0.026026668 -0.07515982 -0.11519425
000070 aa 1e 13 bc 2f be 82 bd b3 38 6e bd 2e fd c6 bd
       -0.008979479 -0.06383931 -0.05815954 -0.09716259
000080 2a 0a 21 be 16 bf 18 be 8e b7 e7 bc 12 99 29 be
       -0.15726534 -0.14916644 -0.028285768 -0.16562298
000090 bd 9d b4 bc c4 f2 0c bd 8a 09 4f bd c9 ca ac bd
       -0.022047872 -0.034411207 -0.050546207 -0.08437116
0000a0 7b 76 0d be 6d c9 b6 3b 5a a0 02 bc f5 00 39 3d
       -0.13814728 0.005578211 -0.007972801 0.04516693
0000b0 32 a6 7a bc ac f9 25 bd 5f 6f 43 3c 7c 58 8e bd
       -0.015298413 -0.04052131 0.011928408 -0.06950471
0000c0 35 54 cc 3c 93 51 97 bc 9d ce f2 bc 0a 62 ac bb
       0.024942497 -0.018471515 -0.029639537 -0.0052607106
0000d0 6e 18 18 3d 03 cf 9d bc bb ed 60 bc cc 33 99 bd
       0.037132673 -0.01926375 -0.013728554 -0.074805826
0000e0 5b fb 64 bd 87 b7 f5 3c 56 6c 94 bd 56 43 12 bc
       -0.055903774 0.02999474 -0.07247226 -0.008927187
0000f0 3e 48 4a bd 78 d1 cf bc 05 58 09 3b 9d 3f 99 bd
       -0.0493853 -0.025368437 0.0020957005 -0.074828364
000100 1a 46 3d 3c 51 d9 96 3c ea 78 a2 bb fb f7 fb bc
       0.011552358 0.018414171 -0.0049582617 -0.030757895
000110 6d 71 ae 3b e9 2c e5 bc 76 e5 3e bc 3d 2d 41 bd
       0.00532358 -0.027975516 -0.011651387 -0.047162283
000120 39 13 09 3d 3b 14 84 bc 51 17 c7 3c de 65 14 bd
       0.033465598 -0.016122928 0.02430311 -0.03622996
000130 30 21 56 bd 90 41 44 3b 79 61 04 bd b0 4d 1c bd
       -0.052277744 0.0029946305 -0.03231952 -0.038160026
000140 a2 93 c4 bd cb 42 ac bc 4b cd 44 bd dd f0 8a bd
       -0.09598471 -0.021027943 -0.048047345 -0.06784222
000150 6e 32 17 bd d6 7a 23 bd 2d 05 88 bd 0d 3c a5 bd
       -0.036913328 -0.039912067 -0.06641612 -0.080680944
000160 24 16 2a bd 0b f3 1d 3c fd e7 85 bc 89 99 e2 bb
       -0.04152502 0.0096404655 -0.016345972 -0.0069152755
000170 95 0b 26 bb 3f 98 ae bc 02 be c0 bc 51 c0 12 be
       -0.0025336493 -0.021312831 -0.023528103 -0.14331175
000180 a3 40 09 bd ea 71 63 bb 3e c1 32 3d 16 61 88 bd
       -0.033508908 -0.003470535 0.04364132 -0.06659143
000190 e5 21 90 bc 57 a4 47 bd 8e 1b aa 3b 38 e0 19 3c
       -0.017594287 -0.04874071 0.005191273 0.009391837
0001a0 51 3f cc bd cd f0 53 3c 96 e4 bb 3c 92 e4 d3 bc
       -0.09973014 0.012935829 0.022936147 -0.025865827
0001b0 24 04 13 bd 4f 84 81 bd d7 49 37 bd 09 86 23 be
       -0.03589262 -0.06324064 -0.044748154 -0.15969099
0001c0 1c 00 ca bd 6a c6 ec 3b 44 be 9b bd 80 a8 c2 bc
       -0.09863302 0.0072258012 -0.0760465 -0.023761988
0001d0 69 60 6f bd 89 f7 0e bd 2c 68 2c 3d b8 2a 45 bd
       -0.058441553 -0.034904037 0.042091534 -0.048136443
0001e0 73 96 39 be 3c cb 01 bc 53 53 57 3c 43 79 d5 bc
       -0.18123798 -0.00792199 0.013142425 -0.026058799
0001f0 25 dc 0e 3a 0f 90 b3 bd 9a 2a 8f bd f2 b2 ea bc
       0.0005449674 -0.08767711 -0.069905475 -0.02864978
000200 19 17 8a bd 66 00 f3 bd f6 af 98 3c 15 18 cc bd
       -0.06742687 -0.1186531 0.018638592 -0.09965531
000210 8b 6d 14 bc 3d 47 44 bd be f2 6b bd 01 76 49 3c
       -0.00905932 -0.0479195 -0.057604544 0.012296201
000220 8b fe 24 be 87 2d b1 bd ac 83 eb 3c 57 71 1c bd
       -0.16112725 -0.08651262 0.02874931 -0.038194027
000230 d2 8b 8a bc 98 50 88 bd 55 3e 1d bd f6 d4 83 bd
       -0.016912375 -0.06655997 -0.038389523 -0.064371035
000240 f2 9e df bc cb 88 26 bc d9 2e c5 bc 03 e3 fb bb
       -0.02729747 -0.01016445 -0.02407019 -0.007686974
000250 78 48 0d 3d 3d 15 6b 39 7f c0 1b bd 65 4e a9 bd
       0.03449294 0.00022419258 -0.038025375 -0.08266906
000260 1a 95 24 bc 2f 68 b7 bd 30 1c 1e bd 5b 5b 70 bc
       -0.010045314 -0.08955418 -0.0386011 -0.014670218
000270 0b 53 92 bd 70 e1 4c bd 99 8a 7f 3c 9e 7a 59 3c
       -0.071447454 -0.05001968 0.015597009 0.013273863
000280 15 76 84 bc 4f ee 44 bb cc f0 4b bd 85 d5 92 bd
       -0.016169587 -0.003004927 -0.04979019 -0.07169632
000290 92 29 89 bd 82 2f 60 bd 70 ca 9d 3c b2 68 fd bc
       -0.06697382 -0.054732807 0.019261569 -0.030933712
0002a0 59 6e 14 bd a9 a0 21 3d a6 ed 5a bd cf 2f 2e bd
       -0.03623805 0.039459858 -0.053449295 -0.042526063
0002b0 83 91 d1 bd 5b 92 51 bd 29 77 c9 bd f9 97 d1 bc
       -0.10232832 -0.051164966 -0.09837181 -0.025585162
0002c0 e0 4f a3 bd 8b 81 c5 3b b9 08 a7 bd 6a 77 e1 3c
       -0.07974219 0.0060274056 -0.081559606 0.027522761
0002d0 8b 90 cf b9 ef 7b 64 bc ba e8 95 bd ae 47 d3 3c
       -0.0003958981 -0.013945564 -0.0731978 0.025791015
0002e0 e3 43 1e bc 4a fc 9a bd a0 57 cd 3c 9b 41 2d bd
       -0.00965974 -0.075676516 0.025066197 -0.042298894
0002f0 f7 9c 0e bd f7 9f d5 3c 5d 17 20 bb 1c 0d 42 bc
       -0.034817662 0.026077254 -0.0024427988 -0.011843946
000300 20 df 91 3d 94 98 29 bc b1 7b 7f bd 9d fb 29 bd
       0.07122636 -0.010351319 -0.06237382 -0.041499723
000310 ef 01 0c bc f3 f6 8a bc 0d dd 5d bd 66 2a c4 3c
       -0.008545383 -0.016963458 -0.05416589 0.023945998
000320 5e 01 e1 bd c5 ef 9b 3c 9f c5 55 bd d3 fb 40 bc
       -0.10986589 0.01903523 -0.05219042 -0.01177879
000330 86 58 eb 3c 72 69 0a bc f2 6f fa 3c 89 d6 fd bc
       0.028728735 -0.008447992 0.030570958 -0.030986087
000340 2f a0 39 3d 65 1a 4d bd 81 92 33 bd 1c 83 aa bc
       0.04531878 -0.050074 -0.04384089 -0.020814471
000350 9a 93 a7 bb 0f 86 54 bd 2c 95 89 bd b6 9d e0 bc
       -0.005114031 -0.05188566 -0.067179054 -0.027418952
000360 9e 1e 02 3c a2 2e 28 3d 89 92 97 bc 4a 46 3f bd
       0.00794187 0.041060098 -0.01850249 -0.046697892
000370 e1 66 7d bd 58 65 4c bc f0 06 02 bd 4d 1c 91 3b
       -0.06186569 -0.012475334 -0.031744897 0.0044284225
000380 01 8b bb bd 99 64 15 bd 82 0a a4 bd 2b bf e4 bc
       -0.09157372 -0.03647289 -0.08009817 -0.027923187
000390 ba 2b 8a 3c 3d dc f8 ba 5d 63 8d bc 63 59 4a bd
       0.016866554 -0.0018986535 -0.017259294 -0.049401652
0003a0 63 b1 49 3d 6b 0c 5b bd 11 19 6d 3d 7e 32 63 3c
       0.049241435 -0.05347864 0.057885233 0.013867019
0003b0 77 20 12 ba d0 8b b8 bd fb 6f 03 be 17 06 98 bd
       -0.00055742956 -0.09011042 -0.12835686 -0.074230365
0003c0 ed 30 00 bb 3c 3f 44 bd b5 82 5c bd a3 75 eb 3c
       -0.0019560412 -0.047911867 -0.05383559 0.028742617
0003d0 38 ce 82 bd 86 60 9f bc 61 00 84 bd 66 42 4e bd
       -0.06386989 -0.019455206 -0.06445385 -0.05035629
0003e0 98 5e e0 3c 9a 65 96 3a 1b e4 3f bd 51 52 a4 bd
       0.027388856 0.0011474371 -0.046848398 -0.08023513
0003f0 df 05 dc 3b 44 5e 94 bd 4b e4 2d bd e6 b4 b0 bd
       0.006714567 -0.07244542 -0.042454045 -0.08628254

actor.4.weight f4 [128, 256]
000000 6e fb 26 bd 69 83 18 3d 42 0d 06 3d e6 1a 52 bc
       -0.040767126 0.037234697 0.032727487 -0.012823796
000010 53 c8 32 3d bf a0 20 bd cd cf 3c 3d 7f b4 6a bc
       0.043648075 -0.0392158 0.04609661 -0.01432526
000020 b0 19 a3 bd 07 e7 8e bd d2 ae 86 bc c2 2d 44 bc
       -0.07963884 -0.06977659 -0.016440783 -0.0119738
000030 9a 9d 51 3d 90 13 88 3d 8e cc 18 3c 3d 94 80 3b
       0.05117569 0.06644356 0.009326113 0.0039239214
000040 19 c0 91 bd 9e 62 9a bd 94 c8 d3 3c a8 6d e8 bc
       -0.07116718 -0.07538341 0.025852479 -0.0283726
000050 af 70 8d bd d1 d6 7f 3d 06 ce 1e bd 7c 0f fa bc
       -0.06906258 0.062460724 -0.038770698 -0.030524962
000060 5f b2 5b bd d2 57 29 bc 03 17 38 bb 0c 9c 5b 3d
       -0.053636905 -0.010335879 -0.0028089888 0.053615615
000070 66 d2 03 3d 9f 57 5d bd 0c a9 d2 bb ff 7b ac bd
       0.032183073 -0.05403864 -0.0064288434 -0.08422088
000080 da ad 27 be d2 22 bb bd 19 5d 97 bd 98 be b3 bd
       -0.16374913 -0.09137501 -0.07390804 -0.08776587
000090 a4 b3 84 3c 21 f2 c4 bb b7 3b d8 bc 28 d4 da 3b
       0.01619894 -0.0060103093 -0.026395662 0.006678123
0000a0 7f a5 d6 bd 67 13 df 3b 7d 28 76 3b d6 77 5d 3d
       -0.104807846 0.006807733 0.0037560754 0.054069363
0000b0 9d e4 63 3d cf b8 9f 3b b4 38 18 bc 8d b1 ca bc
       0.055637944 0.004874326 -0.009290863 -0.024742866
0000c0 fa e9 75 3a 4f bc 80 3d 7a d9 b0 3d e4 04 02 bd
       0.00093808735 0.06285917 0.0863523 -0.031742945
0000d0 03 14 da bd 8b 93 1e 3d 7e 12 7b bb 12 b8 16 bd
       -0.10648348 0.038714927 -0.0038310583 -0.036796637
0000e0 31 1b b7 3d a3 0a 49 bc 8c 7f f7 3a 97 56 72 bd
       0.08940733 -0.012270602 0.0018882616 -0.05916461
0000f0 a0 3c 65 bc 60 e7 d2 bc 7f 0c 50 3a 47 e9 62 3d
       -0.013991505 -0.025745094 0.00079364324 0.05539825
000100 6e c4 5e ba 7c 33 6a 3c 7a ef d0 bc 5b ec 2d bd
       -0.0008497898 0.014294501 -0.025504816 -0.042461734
000110 b7 39 7c bd b5 31 93 3c e7 b9 93 3d 10 fc 5e bd
       -0.06157848 0.017968038 0.072131924 -0.054439604
000120 f8 7f ba 3c 50 fc 7f 3d 03 d7 64 bc eb 6e 9c ba
       0.022766098 0.062496483 -0.013967278 -0.0011934912
000130 9c eb c0 bd 39 ec 29 bc 75 59 1d 3d e9 7a 7f bb
       -0.09419939 -0.010371261 0.03841539 -0.0038983172
000140 34 64 3d bd df 97 b6 bd ec da b3 3d 03 6d 53 bd
       -0.04623814 -0.08915686 0.087819904 -0.051617634
000150 b9 4b 9d 3d c5 47 41 3c 0f 38 0d 3d c3 11 59 3c
       0.076804586 0.011796896 0.03447729 0.013248864
000160 0d 48 0d bc fc 9f b2 3c e8 bb 29 3d 74 2c e6 bc
       -0.008623135 0.021804802 0.041438967 -0.028097369
000170 2d 9c 0e bd b8 4b 67 3d b8 04 a7 3c cf 40 5b 3d
       -0.03481691 0.056468695 0.020387992 0.053528603
000180 86 69 66 bd e0 4d 7b bc 34 8d 71 3c a9 8a ef bc
       -0.05625298 -0.015338391 0.014743138 -0.029240923
000190 b5 a0 b4 3c d2 11 09 3e d7 5e fa bc c9 ee 95 3b
       0.022049287 0.13385704 -0.030562801 0.0045755845
0001a0 46 7a 89 3c 07 ec fe 3b bf 55 b8 bd e0 40 a2 3c
       0.016781937 0.0077796015 -0.0900073 0.019806325
0001b0 cf 1d 46 bd ea 4f 07 3d 9b 7d aa 3c be 42 0f 3d
       -0.04836827 0.033035196 0.020811846 0.03497576
0001c0 0f b8 b6 3b 28 6d 82 3b a2 6c 5c bd d0 a9 5e 3c
       0.0055761407 0.0039802976 -0.053814538 0.013590291
0001d0 0a d9 4b bd a3 67 17 3d 23 78 45 3d 83 bd 41 bd
       -0.04976753 0.03696407 0.048210274 -0.047299873
0001e0 13 32 be 3d 6c c5 27 bd 10 62 f5 bc 67 30 82 3b
       0.09286895 -0.04095976 -0.029953986 0.003973055
0001f0 59 dd ad 3b 95 ab 81 3c 0e e2 52 3b ed 78 8f 3b
       0.0053059277 0.015828887 0.0032178196 0.004378429
000200 90 4d b6 3c f1 36 1b 3d a8 1b 21 bd 16 60 a5 bc
       0.022253782 0.037894193 -0.039333016 -0.020187419
000210 7b 9b 1c 3d 6c 22 6f 3d 51 db 52 bd 21 95 68 3d
       0.038234215 0.058382437 -0.051478688 0.056782845
000220 b0 27 4f 3d 88 8e 82 3d ed ab 6b bd 41 07 15 bd
       0.05057496 0.06374842 -0.057537008 -0.03638387
000230 7b 6f 52 3b da c6 e4 bc 69 17 a5 ba 67 10 81 3d
       0.0032109905 -0.027926851 -0.0012595478 0.063019566
000240 9f 27 80 3c 54 f7 c8 bc 2e 67 3b bc 78 af 56 3c
       0.015643893 -0.024531998 -0.011438174 0.013103358
000250 14 5a 2d bc 75 81 af 3b 64 bf 3e 3d 0e 6f 99 3c
       -0.010580558 0.0053560087 0.046569243 0.018729713
000260 92 62 bd 3c 9e a0 0c bd 9f 0a a4 bc 28 83 43 bd
       0.023118291 -0.034332864 -0.020024596 -0.047732502
000270 14 f2 92 3c 9b 6e bc bc 2b d7 a5 bc b8 d2 bd bc
       0.017937697 -0.02300196 -0.020244202 -0.023171768
000280 ce c3 2f 3d 51 87 0d 3d b1 3c dc bb d4 ff 9c 3d
       0.042911343 0.034552876 -0.006721102 0.07665983
000290 ec 1f db 3b 3e 4d 96 3c 07 c6 39 bb d5 15 f1 3c
       0.006687155 0.018347379 -0.0028346793 0.029429356
0002a0 bf 57 59 3d f3 71 70 bc 64 99 ab bd d9 52 63 bd
       0.053062197 -0.014675605 -0.08378866 -0.05549893
0002b0 b9 c6 c5 bb 9e 7f 45 3b 78 38 1d 3d 74 99 98 3d
       -0.0060356525 0.003013588 0.03838393 0.07451144
0002c0 b3 1d 27 bd c4 b1 81 bc 87 16 43 bd 26 a7 85 bd
       -0.040799808 -0.015831836 -0.047628906 -0.06526022
0002d0 9f d6 62 bd 58 20 81 bd 81 d2 03 bc a7 00 92 bd
       -0.05538046 -0.06304997 -0.0080457935 -0.07129031
0002e0 61 79 57 bb 2e e2 21 3d 2e 53 91 3d 9e dd 90 3c
       -0.0032878744 0.039522342 0.070959434 0.0176838
0002f0 9b a3 b3 3d 07 5c 50 3c 5d 82 a6 bc 27 ba ed b9
       0.0877144 0.0127172535 -0.020325834 -0.00045342857
000300 54 22 a5 bd f7 12 3f 3d 09 10 fe 3c 83 06 26 b9
       -0.08063188 0.046648946 0.031013506 -0.0001583342
000310 72 d2 91 bc 83 0f dc 3c 5e 23 bc 3c 9c b5 8b bd
       -0.017800543 0.026862865 0.022966083 -0.068217486
000320 42 77 de bc 53 7d c5 ba 19 c2 95 bc 56 ff 28 bd
       -0.027156476 -0.0015067257 -0.01828103 -0.041259132
000330 c9 3a c8 bc 51 e5 5f 3d 1f 88 ee 3c f7 f7 2a bc
       -0.024442093 0.054662053 0.029117642 -0.010435096
000340 e8 36 8f bd 31 55 5c 3d fa fd 51 ba cc f2 6c 3d
       -0.069928944 0.053792182 -0.0008010563 0.057848737
000350 f0 3d 54 bd 12 09 ca 3d f9 15 e1 3c 5e 50 0a 3d
       -0.05181688 0.09865011 0.027476298 0.03376805
000360 1b 31 ae bb f3 9f a2 bd d9 28 f5 bb 8b 59 fc 3c
       -0.0053159124 -0.07940664 -0.007481676 0.030804416
000370 09 8a de 3c 09 29 48 bd 8f 32 3f bd 8b 88 b2 3d
       0.02716543 -0.04886726 -0.046679076 0.0871745
000380 90 1c 61 3b 97 f7 37 3c 0f a2 0e bd 75 6a 12 3d
       0.00343493 0.011228464 -0.03482252 0.035746057
000390 4f 5d 96 bc 27 c0 f2 3c 59 ad 83 3d f1 93 15 3d
       -0.01835504 0.029632641 0.06429548 0.03651804
0003a0 f3 34 53 bd ab fe 04 bc c6 e2 1e bd 04 3b 39 bc
       -0.05156417 -0.008117358 -0.038790487 -0.011305574
0003b0 1f 83 0c bc 6e 60 17 bd f6 1f 4b 3d b6 c1 10 3d
       -0.008576184 -0.036957197 0.049591027 0.035340987
0003c0 81 d6 a4 bd 25 02 b3 3d 3f 2f d0 3b ce bc 54 bd
       -0.08048726 0.087406434 0.0063532884 -0.05193787
0003d0 db f6 d5 3c dc 6b 94 3d 19 c4 25 3d 99 ac be bc
       0.026118686 0.07247135 0.040470216 -0.02327566
0003e0 27 a7 8c bd 22 0f 04 3d e7 b7 12 bd b1 63 36 bc
       -0.06867819 0.032240994 -0.035819914 -0.011132167
0003f0 b5 ff 8e bd 91 51 31 3d f2 f5 81 3c 08 56 9c 3d
       -0.06982366 0.04329068 0.015864346 0.07633597

actor.4.bias f4 [128]
000000 51 12 33 bd 8e 2c ae 3d eb 2d 5e bd 3c 40 61 3b
       -0.04371864 0.08504592 -0.05424301 0.0034370562
000010 02 5c 74 bd fe 13 2d bd b9 80 64 bd d2 40 9b bd
       -0.059658058 -0.042255394 -0.055786822 -0.07580723
000020 98 45 9d 3d bd 9d c4 bd c0 74 d6 3c f6 7f 16 3d
       0.076792896 -0.09600399 0.026178718 0.036743127
000030 bf 51 94 bd b5 c5 4c bd 87 0b da bc bf 91 cc bd
       -0.07242154 -0.049993236 -0.026616825 -0.09988736
000040 3b ef 01 be 5e 17 a6 3d 67 21 a2 3d 57 a5 54 bd
       -0.12688915 0.08109926 0.07916527 -0.051915493
000050 e7 05 3f 3d 5c ba 1a bd bb 26 3c 3c 86 ad f3 bb
       0.04663649 -0.037775382 0.011483843 -0.007436457
000060 2b 38 84 3c 29 5e 15 bd 45 7d c0 bd f9 60 79 3d
       0.016140064 -0.03646675 -0.09398893 0.060883496
000070 6b 87 07 3d 02 02 18 bd 50 ac e0 bc e2 e4 da bb
       0.03308813 -0.03711129 -0.027425915 -0.006680117
000080 b9 28 48 bc 08 d7 90 bc c4 ab 42 bc 5e 2e 14 3d
       -0.01221674 -0.01768066 -0.011881772 0.03617703
000090 b9 07 86 3b 2a 9e e7 bc ea cb 2d ba 37 a0 41 bc
       0.004090276 -0.02827366 -0.0006629812 -0.011817983
0000a0 6b 49 a2 bd 86 d7 05 bd d5 14 5f 3d 96 1e 95 3b
       -0.079241596 -0.032676242 0.054463226 0.0045507653
0000b0 7a 7f 2f bd 73 b2 19 bd 1d a8 b2 3b 4d a4 11 bd
       -0.04284618 -0.037523698 0.0054521696 -0.03555708
0000c0 d4 cd bd bc ae 5d bc bd 24 e8 be 3c 5a 61 db 3b
       -0.023169436 -0.091975555 0.023304053 0.006694955
0000d0 40 93 aa 3c 9f 4d cb 3c 7e f1 c5 bd 7a d5 3e 3d
       0.020822167 0.024817286 -0.096652016 0.046590306
0000e0 9c 85 61 bc 78 b5 06 bc 29 85 f2 bb f8 84 44 bd
       -0.013764765 -0.008221976 -0.007401128 -0.04797837
0000f0 8a e9 51 3d 8a 22 cc b9 7e d7 7c bd 55 ba 12 bc
       0.05124811 -0.00038935646 -0.061728947 -0.008955558
000100 93 9e 23 3d 3b 93 21 bd 1e c2 19 3d 3f 16 7f 3c
       0.03994615 -0.03944705 0.03753864 0.015569269
000110 25 a2 c8 3c 4f e1 e8 3b 8c c0 b2 ba 42 a4 9d 3d
       0.024491379 0.007106937 -0.0013637706 0.07697345
000120 cd a9 d2 bd 86 e3 4e bd 32 19 8e 3d 0d d4 93 3d
       -0.10286293 -0.050509952 0.069383994 0.0721818
000130 24 ba 98 bc c9 13 36 bc a9 9f 0d 3d 25 28 d7 bd
       -0.018643446 -0.011113116 0.034576092 -0.10505704
000140 51 8f 90 bd 64 2d 44 3d 7e 91 1e 3d f2 13 2a 3d
       -0.070585854 0.04789485 0.03871297 0.041522928
000150 4b 70 31 3c 8e 5e 8f bb a8 53 4e 3c 21 3e 98 3a
       0.010829995 -0.0043752855 0.012593187 0.0011615196
000160 4a fe 42 bd 73 a3 f9 bb 00 c0 6c 3b ca ad 9a 3d
       -0.04760579 -0.0076183616 0.0036125183 0.07552679
000170 33 02 7b 3b f1 46 f2 bd 3b d2 b0 bc f0 f1 0b be
       0.0038300871 -0.11829937 -0.02158462 -0.1366651
000180 16 cc 8c 3d 28 c6 7a 3c e0 be a6 3d a8 b5 8c bc
       0.06874864 0.015306033 0.08141875 -0.017176464
000190 c3 39 14 3d 5b 05 15 bc 58 b8 53 3d 3c d3 54 bb
       0.0361879 -0.009095515 0.051689476 -0.0032474538
0001a0 6a 81 09 3d 4e b5 e5 3c 30 f5 a8 bd a7 55 68 bd
       0.033570684 0.028040554 -0.08249891 -0.05672231
0001b0 f3 7e 4b bc 4b 5b 4c 3d 77 b3 60 3d fc ae 08 bd
       -0.012420404 0.04989175 0.05485865 -0.033370003
0001c0 32 82 c6 3b 7d 04 88 bd 65 72 82 bb 7c 4d 85 bc
       0.006058001 -0.06641481 -0.003980922 -0.016272299
0001d0 08 1d 55 bd 2b f6 30 3b 26 5c e0 3c 6c 0e 98 3c
       -0.05202964 0.0027002196 0.02738769 0.018561564
0001e0 93 33 8a bd 57 b3 41 3a db e3 b5 3b 1f 4c 41 3d
       -0.06748118 0.00073890894 0.005550844 0.047191735
0001f0 9d 3b 4f bd bf 46 e7 3b e8 46 ed bc c2 11 bb 3d
       -0.05059396 0.007057994 -0.028964475 0.091342464

actor.6.weight f4 [29, 128]
000000 36 d6 9e bc d1 13 af bb b3 ee 88 bd 81 56 21 be
       -0.019389253 -0.0053429385 -0.06686153 -0.15755655
000010 69 a7 80 bd ee fa 33 bd eb 72 f2 3c 19 23 ce 3d
       -0.06281931 -0.043940477 0.029595813 0.10065288
000020 a8 38 ac bd 64 4b 8b 3c fc 2e 56 3d 43 06 82 bd
       -0.08409244 0.017003722 0.0522909 -0.063488506
000030 b2 3f 5f 3d f6 22 a1 bc d1 81 44 3d dd af 8e bd
       0.054504104 -0.019669991 0.047975365 -0.06967137
000040 40 f2 e1 bc 6a f0 33 3c a9 9f 97 bb 23 b6 82 3d
       -0.027581334 0.010982612 -0.0046271873 0.06382396
000050 76 f1 16 bd 26 f7 1c 3c d3 97 94 bc 87 9e 36 bd
       -0.03685137 0.009580409 -0.018138802 -0.044584777
000060 9e 0e 22 bd b8 f3 e5 3c f0 df 40 3d a3 d9 7f 3d
       -0.03956472 0.028070316 0.047088563 0.062463414
000070 6b 43 0b bd 2a f3 a7 3d 75 16 04 bd 65 a0 78 3d
       -0.03399984 0.08200677 -0.03224798 0.06069984
000080 7e 5d b8 3d a5 d4 98 3d 4d fd 58 3d ea 8d ae 3c
       0.09002207 0.07462434 0.05297594 0.021307904
000090 cb 1f db 3c 65 f1 fa 3c b3 46 83 3d b9 4d 27 3d
       0.026748559 0.030632684 0.06409969 0.040845606
0000a0 2f b8 bd 3b 69 12 63 bd b5 6f 09 bc 93 81 fb bc
       0.0057897787 -0.05543748 -0.008388449 -0.030701434
0000b0 2b 18 5c bc b3 bf fb bc 3f 46 01 bd 0e 9a 46 bd
       -0.0134334965 -0.030731058 -0.031561133 -0.04848676
0000c0 ee cb 72 3c 7c 59 4f be 95 e5 64 bd e8 28 85 3c
       0.014819128 -0.2024898 -0.05588301 0.016254857
0000d0 0d 75 e4 3c 44 b9 c7 bd b6 c6 e7 bb 0b 13 09 3d
       0.027887845 -0.097521335 -0.0070732487 0.033465426
0000e0 87 fd 4d 3d 2b e2 27 bd c2 b6 03 3d 9c 4a 08 be
       0.05029061 -0.040987175 0.032156713 -0.13309711
0000f0 47 30 97 bd 14 69 0b bd 49 ae 1d bd 7c 72 ab 3d
       -0.07382255 -0.034035757 -0.03849629 0.083714455
000100 2f 4d 9e 3c d7 c7 99 3c 41 74 5a 3d a5 8f 4d bc
       0.019323913 0.018772049 0.053333525 -0.012546455
000110 d9 ca 31 bc b0 75 a3 3d 36 a7 5a bd c8 56 80 bc
       -0.010851585 0.079814315 -0.05338212 -0.01566638
000120 04 0a 7c 3c 2e ad 09 bd 66 ae 8f bd 4b 3d 18 bd
       0.015383247 -0.033612423 -0.07015686 -0.03716783
000130 28 8c b0 bc 96 52 17 3d 98 af ef 3c be a9 4d 3d
       -0.021551207 0.036943994 0.029258534 0.050210707
000140 05 dc d3 3c 33 be 18 3d 60 65 b7 bc ee d1 d6 bc
       0.02586175 0.037290763 -0.022387207 -0.02622315
000150 c1 db 91 3d a6 89 71 bb 03 3a 0a bd b0 fd 18 3d
       0.07121993 -0.0036855727 -0.03374673 0.03735131
000160 d5 4b 8a bc 3c ad f2 bc e5 f2 0a bd ba 8e a7 bd
       -0.016881863 -0.02962362 -0.03392305 -0.0818152
000170 5c 17 0b 3d 03 5f c5 bd 64 29 68 3d 7b 2b 09 bd
       0.033957824 -0.09637263 0.0566801 -0.03348873
000180 ac 22 7e bd df d2 83 bc 4a dc cf 3c 36 b2 72 3d
       -0.062044784 -0.016091762 0.025373597 0.059251986
000190 f6 cd 8b bd 85 99 99 bd 1e 2b c6 b8 7e e8 e0 3b
       -0.06826393 -0.07499985 -9.449407e-05 0.0068636527
0001a0 c5 ef b3 3c e3 d5 98 3c 6c ef c3 3d 61 d1 96 3c
       0.021964917 0.018656677 0.095671505 0.018410387
0001b0 3b 62 79 3d d7 37 65 3a 00 40 96 bc 2d 2f bf bd
       0.060884696 0.00087439775 -0.018341064 -0.0933517
0001c0 8d a7 24 bd 96 23 9c 3b ec 1e 4a bc 0b 8c 53 3d
       -0.04019885 0.0047649844 -0.012336474 0.051647227
0001d0 b4 20 a3 3c f9 52 96 bd f9 ea cf bc 1f 95 10 bb
       0.019913055 -0.073400445 -0.025380598 -0.002206154
0001e0 6e a9 9f bb a1 28 72 bd e9 68 f6 3d db 9c 69 3d
       -0.0048724925 -0.059120778 0.12031729 0.057034355
0001f0 c5 42 00 3b bd 9c b3 3c 5f 53 20 be fa f5 06 bd
       0.0019571048 0.021925325 -0.15656804 -0.032949425
000200 e4 c8 30 3d 57 b0 5e bd 6b 44 44 3d b0 b6 cd 3d
       0.043160334 -0.05436739 0.04791681 0.100446105
000210 88 84 ed 3c 7a 31 c6 3c ef 4f 20 bd 9b e6 b4 ba
       0.02899386 0.024193514 -0.03913873 -0.0013801636
000220 e1 0a 95 3c 13 8a 6a 3c 3f 58 80 bd 44 52 86 3d
       0.018193664 0.014315146 -0.062668316 0.0655866
000230 ec f3 7a bd bb 6d 64 3d 73 f9 bd bd e4 df ef bc
       -0.06126778 0.05576871 -0.09276094 -0.029281564
000240 cc 14 4e 3c 02 92 1b bd 3e 09 48 3c 23 2c 33 bd
       0.012578201 -0.03798104 0.012209235 -0.043743264
000250 96 37 3d 3d 67 b9 49 bd f3 e0 80 3c b8 41 40 bc
       0.04619559 -0.04924908 0.015732264 -0.011734419
000260 54 a7 4e bd f9 35 11 3b 80 dc 23 3d 12 28 69 bd
       -0.050452545 0.0022157414 0.040005207 -0.05692298
000270 e9 bc 4b 3d 79 43 57 bc c4 03 89 3d d8 78 bd 3c
       0.049740706 -0.013138645 0.06690171 0.023128912
000280 27 3b 13 bd 59 b2 bf bd 5f ca 86 bd c9 ab 01 bd
       -0.035945084 -0.09360189 -0.06581568 -0.031657968
000290 e8 bf e0 3d 06 5f 9a 3b d5 bf 88 bd a5 a0 b1 3c
       0.10974103 0.0047110347 -0.06677214 0.021683047
0002a0 8e d4 55 3d 4a e3 6f bc c0 5b 91 bc dc e5 32 3d
       0.05220466 -0.014641592 -0.017743945 0.043676242
0002b0 b4 08 8d 3b 93 4d e8 bc 01 6a e9 bc 97 dc 0d bd
       0.004304016 -0.028357303 -0.02849293 -0.0346342
0002c0 44 ee 63 3d 3c 18 00 3e 4c 8b 46 bc c4 2f f2 3c
       0.05564715 0.12509245 -0.012118172 0.029563792
0002d0 6d f7 6e 3d de 2f b7 3c b9 7b af 3d 05 c6 4e 3d
       0.058341432 0.022361692 0.0856852 0.050481815
0002e0 8d 41 56 3c 4a 6f 1e 3d 2b d8 22 3c 09 be 45 bd
       0.013077152 0.038680352 0.009939234 -0.048276935
0002f0 39 e1 ce 3c ed 00 d4 bc 64 53 94 3c a1 2d 7d bd
       0.025253879 -0.025879348 0.01810617 -0.061811093
000300 82 cd bf bc ec e0 79 3c bf ee 26 3d de 2a a0 bb
       -0.023413423 0.015251379 0.04075503 -0.0048879227
000310 c5 6d 8e ba 3b e2 e2 3c 80 c9 ac 3c 0f 12 d3 3d
       -0.0010866454 0.027695766 0.021092176 0.10306179
000320 ee fb 20 3d 49 c1 5e 3c aa 61 20 bb 48 83 8a bd
       0.03930276 0.013595887 -0.0024472275 -0.06763321
000330 7f 4e 74 3d 84 06 3f bd e5 78 06 3d bc 0b 9a bd
       0.059645172 -0.046637073 0.032830138 -0.075217694
000340 a7 21 16 3d f7 ec df bc ac ec 8c bd b4 db 1a bd
       0.036653187 -0.027334673 -0.06881079 -0.03780718
000350 73 2b aa bd 2e 1c 0a be 41 7d 94 3d 16 7c 6f 3d
       -0.083090685 -0.13487312 0.07250453 0.058467947
000360 6b 53 42 3d cf 70 5f 3d e4 5c 88 3d b2 41 e3 3d
       0.047442835 0.054550942 0.066583425 0.11096515
000370 38 1d 1e 3c f6 17 7b 3c ae b2 c2 bd 3a 8f 99 3c
       0.009650521 0.015325537 -0.09506737 0.018745054
000380 18 8f cb 3c 16 05 d4 bc 2a 89 06 3d 45 e1 1c 3c
       0.024848506 -0.025881331 0.032845654 0.009575193
000390 97 a2 85 3c 19 2b ed 3d a0 70 1a 3d c0 2b 60 bc
       0.01631288 0.11580486 0.037705064 -0.013682306
0003a0 c3 38 06 3b 94 0f 2f bd cc 4c 64 bd 2d 42 c9 3c
       0.002048061 -0.042739466 -0.0557373 0.024567688
0003b0 19 b7 9d bd 73 3a 84 bd 9b 57 48 3b 64 57 89 3d
       -0.07700939 -0.06456461 0.0030569795 0.067061216
0003c0 19 c3 c8 3c c0 ce 38 3d ef a9 94 3c a5 95 57 bc
       0.024507092 0.045119047 0.018147437 -0.013158237
0003d0 9a 37 bf 3c 82 7c d0 3d 57 64 bb bd 57 8b cd bb
       0.023341943 0.10179998 -0.09149998 -0.006272714
0003e0 8f 71 27 bd af b6 a2 bc 43 eb 11 bd b1 7d 61 bc
       -0.040879782 -0.019862501 -0.035624754 -0.013762877
0003f0 08 b1 b3 bc 0d 3e 81 bd 94 da 39 bb 3a 19 b1 3c
       -0.021935001 -0.06310663 -0.0028359042 0.021618474

actor.6.bias f4 [29]
000000 e2 6b 72 3d 50 52 20 bc d0 8d 43 3d 62 b1 c6 3d
       0.059184916 -0.00978525 0.047742665 0.09701802
000010 07 bc f8 bb 7c 2d 98 bc 4c f7 3e bd a1 55 85 bd
       -0.007590774 -0.018576376 -0.04662256 -0.06510473
000020 4a f1 51 bd 76 70 51 ba 3a e4 7e bd cc 67 fe 3c
       -0.0512555 -0.0007989475 -0.062229373 0.031055354
000030 2c 34 a4 bd 9a e7 f5 3d b1 b4 04 3e 66 53 9e 3d
       -0.080177635 0.12007065 0.12959553 0.07730751
000040 4d 39 c1 3c 50 d7 54 3d cf 27 cb 3c 6d 48 8f bd
       0.023586893 0.05196315 0.024799256 -0.06996236
000050 c2 6d 96 3d c3 06 85 bd 29 fa 00 3d 1e 86 68 3d
       0.073451534 -0.0649543 0.03148857 0.05676853
000060 c8 4a 26 3d 5c 8b dd bc f7 fe 67 bd 88 c4 27 bd
       0.04059866 -0.02704399 -0.056639638 -0.04095891
000070 92 ba 17 bc
       -0.00926079
